data/usefullDatasets/lstm_classifier_py3.pth (torch, 93296 bytes, 11 tensors)

embedding.weight f4 [177, 32]
00000000: a046 f43d 5faa 63bf 9b0d 5cbf e0e4 c4be
00000010: 7de3 083d 1583 cf3f 141d efbf c724 8bbe
00000020: 41eb 883e 9ac1 1b3f f5a7 1d3f 737b e23d
00000030: d4eb 0a3f de7f 753f b38b 7e3e 43f1 bf3e
00000040: db2c 243f c5e5 263f 2c56 30c0 8636 a53d
00000050: 826b 5dbf b744 b9bf 2468 3e3f bc64 d13e
00000060: 22fd 263e cf1a 173f bb70 93be d1bf b2bf
00000070: 0777 d03f bb1e 223e 4111 593e 476c c43f
00000080: bab3 ff3f a5d6 dd3e 9d3b 253e bd52 c53e
00000090: c533 563f 04e5 9bbe 8012 0d3f dfa3 0e3e
000000a0: dba9 5d3f 7d8e 00bf 02e7 4cc0 8305 333f
000000b0: 869e ea3d 7247 2e3f 335d 73bd 03ed 593e
000000c0: 2be8 ed3e 5e2d 7d3f 077f 4dbd ee3a 49bf
000000d0: 2e35 efbe af55 a73f fa3b 5abf f42d 52bd
000000e0: 4d4c dbbc 2ecc b2bf 09df 8d3d 61b5 aa3e
000000f0: 2d56 11bf 1ce6 4d3d 3f30 9d3e 279a c8be
00000100: 9f7c 163f ff45 2cbe dbda 413f 52de 2a3f
00000110: bb81 6dbe 0cf9 37bf d9ce 8a3f 4adb e7bf
00000120: e759 ed3d b5c1 92be 74b3 6fbf 8e85 c03f
00000130: cdfc cabf e6ae 96bf a1c2 093f 01b1 0040
00000140: 5970 c03f fdbf a7bc a790 d4bd 6aa4 89be
00000150: ae6f de3e b81a a6bf 04f9 a03e 58f7 48bf
00000160: 634c 12c0 02c1 843f 7f8f 943d 1092 dbbf
00000170: e969 87bf 1382 d63e ccf7 b5be 0c2b 59bf
00000180: daa1 a3be 00b4 6a3f 3cea e4be 2d81 073e
00000190: c19d b63e e9f4 f1bd a5f9 f63e ec3e a2bf
000001a0: 8142 cebe 9805 b6bf 62fa 7f3f d009 c83f
000001b0: 3463 323f e8ac f3bf cb32 363f 5c0c 57bf
000001c0: 1211 a43f ade7 27bf e8a2 30be dc40 85bf
000001d0: 6277 413e 10af bb3d 023f 0c3d b868 023e
000001e0: d2ab 7f3f 5f1d 86be a96b 0140 52e6 1e3d
000001f0: da04 96bc 91d7 e13f 60a2 a83f f866 d93f
00000200: 11ce 753f 3843 e83e 50bc e5be 2020 26c0
00000210: 795f f43e d248 2940 6208 c83e 91d9 84bd
00000220: 7a4f eabe 8bea 0fbf 3030 a9be c9c1 2bbe
00000230: 4e70 56be a48b 3fbf ce2a 1a3d 4172 dc3e
00000240: 43f4 b73e 05da 7bbf 7b71 7bbf ff29 493f
00000250: 750d 6cbf da29 cc3d 2630 8a3f b774 f5be
00000260: 8dde 373e 8695 31be 6258 0bbf 488f 03bf
00000270: e47c 043e 96e4 70bf 0d4c aabc 4d24 74be
00000280: e7b4 103f afec 8a3e 1ba9 27bf 12ae 403f
00000290: 5d14 4d3f c17a 09bf a171 f9be c25d 0840
000002a0: 5613 e3be 0ec7 f73c 19f0 5d3f fb23 fe3f
000002b0: 180e ebbf ad1e 81bf 8033 083f 78e4 873f
000002c0: 595f 613f 3dad 66bf 0920 04bf 6036 45bd
000002d0: 2243 17bf bbf3 3e3f a50a f53f a7c0 f83c
000002e0: 03cc 43bf fdc5 3cbe a6d3 febe a564 183e
000002f0: ead7 a23e cc14 c3be 3328 f3bf 9a1e bd3e
00000300: 2faf 81bf 681a f13f 848f bf3f 8ab5 113f
00000310: dae1 233f 97ce 9b3f 2e01 fb3e a539 94bf
00000320: c19c 4abf 9d8d 9e3f a6cc 11bf 0a1f 6a3f
00000330: 2f35 3a3d f7a3 7abf b918 ad3f 15d0 19c0
00000340: 9634 623e d29a ecbe 8366 003d ce29 71bf
00000350: b1e7 123f 41b3 adbd 7c13 a73f 49f6 06bd
00000360: 4edd 953f 3ff8 ae3f e668 8dbf eef5 a7be
00000370: e25f e3be 7913 dfbe 864f 3ebe 3789 16c0
00000380: 309f aa3e c122 13bf 8e3c 0b3f fe13 533f
00000390: d5e4 1a3f 1d82 13be 5783 92bd 8561 cd3f
000003a0: 9040 49bf af17 e33d 9512 1cbf f4c9 d7bd
000003b0: 03c9 4cbc db42 ff3f 5996 9bbe ccb2 a7bf
000003c0: 36d4 9f3f eb19 03be ce59 383f 73ab 893f
000003d0: ad3e 773f 6ac7 cdbf 4894 5c3f cb43 01bf
000003e0: 0172 003e 75df 0340 e8a3 9b3e 2dfd 5cbf
000003f0: d04f f73f 9768 c0bc 05cf 733f 26db 3e3f
0.11927533 -0.8893184 -0.8595826 -0.38455868 0.033420075 1.6211878 -1.8680749 -0.27176496
0.26741984 0.6084229 0.6158441 0.11058702 0.54266095 0.95898235 0.24857979 0.37488756
0.64130944 0.6519435 -2.7552595 0.0806704 -0.8649217 -1.4474095 0.74377656 0.40897167
0.163075 0.5902528 -0.28796944 -1.3964788 1.6286324 0.15832035 0.21197988 1.5345544
1.9976723 0.43327823 0.16136022 0.38539687 0.83672744 -0.30448163 0.55106354 0.139297
0.86587304 -0.5021742 -3.2015996 0.69930285 0.11456017 0.68077767 -0.059415054 0.21281819
0.46466193 0.9889735 -0.05016997 -0.78605545 -0.4672026 1.3073024 -0.85247767 -0.051313356
-0.026769781 -1.3968561 0.06927306 0.33341506 -0.5677212 0.050268278 0.3070087 -0.3918011
0.58783907 -0.16823576 0.7572457 0.66745484 -0.2319402 -0.7186439 1.0844375 -1.8113797
0.11589413 -0.28663412 -0.936332 1.5040758 -1.5858399 -1.1772125 0.53812605 2.0108035
1.5034286 -0.02047729 -0.10379153 -0.2688325 0.4344458 -1.2976904 0.31439984 -0.78502417
-2.2859123 1.0371401 0.07253932 -1.715395 -1.0579196 0.41896114 -0.35540617 -0.8483131
-0.3195942 0.9168091 -0.44709957 0.1323287 0.35667232 -0.11814291 0.4823734 -1.2675452
-0.40285113 -1.4220457 0.9999143 1.5627995 0.6968262 -1.9037142 0.71171254 -0.84003234
1.281771 -0.65587884 -0.17249644 -1.0410419 0.18893197 0.0916425 0.034239776 0.1273526
0.9987155 -0.26194283 2.022196 0.03879387 -0.01831286 1.7643911 1.3174553 1.6984549
0.9601756 0.45363784 -0.44870234 -2.5957108 0.4772909 2.6450696 0.39068896 -0.0648681
-0.4576376 -0.5621726 -0.33044577 -0.16773142 -0.20941278 -0.7482245 0.037638478 0.4305592
0.35928544 -0.98379546 -0.9822003 0.78579706 -0.92208034 0.0996892 1.0795944 -0.4794061
0.1795599 -0.17342195 -0.54431736 -0.51390505 0.12938267 -0.94098794 -0.020788217 -0.23841973
0.56526035 0.271337 -0.6549241 0.7526561 0.80109197 -0.5370293 -0.48719504 2.1307225
-0.4435069 0.030246284 0.86694485 1.985473 -1.8363676 -1.0087487 0.5320358 1.0616598
0.88036114 -0.9010809 -0.5161138 -0.04814756 -0.5908681 0.74590653 1.9143873 0.030365301
-0.7648317 -0.18434902 -0.4977085 0.14882143 0.31805354 -0.38101804 -1.8996643 0.3693741
-1.0131587 1.8836184 1.4965672 0.5691763 0.640165 1.2172421 0.49024338 -1.1580092
-0.7914544 1.2386967 -0.56952894 0.9145361 0.045460876 -0.9790644 1.352317 -2.4033253
0.22090372 -0.4621187 0.031347763 -0.94204414 0.57384783 -0.084814556 1.3052821 -0.03294972
1.1708162 1.3669509 -1.1047637 -0.32804817 -0.4440909 -0.43569544 -0.18585023 -2.352125
0.33324575 -0.57474905 0.54389274 0.8245238 0.6050542 -0.14405103 -0.07153957 1.6045386
-0.7861414 0.11088502 -0.60965854 -0.105365664 -0.012499097 1.9942278 -0.30388144 -1.310144
1.2486637 -0.12802856 0.7201203 1.0755447 0.9658001 -1.6076481 0.8616376 -0.5049407
0.12543489 2.0605137 0.30398488 -0.86323816 1.9321232 -0.023487372 0.9523776 0.74553144

lstm.weight_ih_l0 f4 [128, 32]
00000000: d51e 0b3e d198 bc3e 518f 143f 45d2 d3be
00000010: c3c0 d2bd 9feb 0a3f 0a5a 473f b3f6 283e
00000020: c4b7 c6be a538 c6bd 9d51 433f 9af5 8abf
00000030: 6a01 693e 1155 46be 10cd 38bd 2fcf 57bf
00000040: 7b9d bebd bef8 c9be c27d 3ebf cb4e 03bd
00000050: 5953 793f 9db5 2dbf db48 363e e8e8 253d
00000060: 168b 19be 9d24 ebbe 7b58 e6bd 3202 fbbe
00000070: a05a 4dbf 8752 aabe 0938 06be ae90 0bbf
00000080: fc68 903e 72ab 483f dfb0 c23e 3227 043e
00000090: bb62 fb3e 0e2e 623f 0c63 0e3f dbe4 23be
000000a0: 5911 5a3e 7ccb 583e 9902 053f a1b4 5cbe
000000b0: a913 753e 10b9 72be 1156 08be 785b 98be
000000c0: 6344 ba3e 93b4 2d3e 5969 8bbe 4dcd 663d
000000d0: 0ba1 99bd f82e a7be 2a36 7f3e cd08 f93e
000000e0: ebdb df3e b4e9 83be dfe4 223f fe6a 4bbe
000000f0: f315 19be e623 043e 1f37 403e 7088 e2bd
00000100: c795 98bd a83d e1be 7730 7d3e 3dc4 ef3e
00000110: da80 b3be 2279 3fbe 40ac a8be af68 09bf
00000120: 5aff 11bd 1398 0bbe de21 54bc 9017 013e
00000130: e73a eb3b 565b 273e fcd6 cdbe 0d17 003f
00000140: ce09 203e 24ad 2a3e bddd e3be 87a3 fa3d
00000150: 8894 083b 263a 31be 848c 513e 52f3 45be
00000160: 389a d33e c844 aebe 5824 fb3e ef92 72bf
00000170: ece6 003f a508 f03e d561 b83e 04b9 0d3e
00000180: fd11 863e 9fdd e0be 91fd b73e c8fa b03e
00000190: a306 8f3f 95a5 023f b793 de3c 3174 de3d
000001a0: 9d57 9f3e 3f1c 11be 673f d6be d86a 343f
000001b0: 6a4d 12bf 10c9 f23e b0b8 2cbe 64d2 4f3d
000001c0: 47a5 7abe 8904 6bbe 1377 70bf 433d 9cbe
000001d0: 5cab 33bc 2ba2 3cbf 9861 49be b36e 53bc
000001e0: 3ae7 13be 63f2 0a3c 1014 7cbe 2559 11bd
000001f0: 6fba 93be 9418 f23c 0738 bc3e 784f 6f3d
00000200: fa38 4c3f cc21 c13e f0ea ee3d 7121 bf3d
00000210: 83ab a43e c991 cf3d 8bcb 61be 6cb9 57be
00000220: 430b 0f3e 8726 cbbd d40d 32bf 54f0 f6be
00000230: e8db 3c3f 80d1 9dbe fcea b2be d21b 24be
00000240: bc97 8e3e 57d4 61be 787c dabe d046 91bf
00000250: 3ad7 cfbd 20a8 113f 0823 77bf a860 19be
00000260: 02a1 8d3e 7884 9abe 3136 6b3d 021c b13d
00000270: 73b7 973e 956d e23e 6c19 663f 6eb6 9bbd
00000280: c6ed 1d3f d8b7 f93d 8191 963d f46f b13e
00000290: a014 ec3e 10b7 0ebf 24dc 033e 2822 0a3d
000002a0: 9698 e73d 689e e4be b1fd f5be 685b b83e
000002b0: 44b8 0fbc 3705 223e af26 43be 45f6 2bbd
000002c0: 0b83 75be ed83 353c a5e8 0c3f 5fc5 59bf
000002d0: 5dc1 ffbc c80e babe a1de 0dbf e0a0 cfbe
000002e0: e00d e93d 900c 393c 977a a03e 02d6 823e
000002f0: caa4 0cbf 1da1 4cbe 782a 853e 86e6 be3c
00000300: 9538 20be cba7 a8be aeb8 c6bc dd44 db3e
00000310: 4e2d 3a3e ddf8 5dbf a533 dd3d 4f32 babe
00000320: 6510 5d3e d22b 3b3f fabf f2bd 408e e9bd
00000330: 1c50 01bf 4dc5 d83d ef11 943e e2d0 813e
00000340: 1a07 07be 0026 33be ca9b 2f3f 06fb bfbd
00000350: 62b0 9bbe 02a5 2ebf 4722 92be a935 83be
00000360: e9b4 103e eca3 ea3e ec4b babe 5e8f 913c
00000370: 893d 02be 2c4c d93e 2811 02be 4f99 4cbf
00000380: 0bbd 65be 0fec 98be 7526 79be f6da 14be
00000390: 7434 d4bd 3dfa 623f a3d2 a4be 5b62 543d
000003a0: f52c 0abf 7b4c 483a 4521 e4be 095a 35bd
000003b0: d3d0 193f 6114 8dbe acc8 4dbe 9be1 9ebc
000003c0: aa5d 3d3e 3812 7dbc 3f46 cabe 6dd2 d4be
000003d0: 31f9 28bf b87c 133e 33b9 46bd a3f7 d83d
000003e0: 9eb7 00be b287 85bd 588c 8b3f 34ab 48be
000003f0: a445 9f3e 55db 03bf 6851 043f 4173 973d
0.1358598 0.3683534 0.58031183 -0.4137136 -0.10290673 0.5426578 0.77871764 0.16500358
-0.38812077 -0.09678773 0.76296407 -1.0856202 0.22754446 -0.19368388 -0.045117438 -0.8430051
-0.09307381 -0.39447588 -0.7441064 -0.032057565 0.97392803 -0.67855245 0.1780123 0.04050532
-0.14994463 -0.4592637 -0.11247345 -0.49025112 -0.8021641 -0.33266088 -0.13107313 -0.5451764
0.28205097 0.78386605 0.38025567 0.12905577 0.49098763 0.88351524 0.55619884 -0.1600527
0.2129568 0.21171373 0.5195709 -0.2155328 0.23933281 -0.23703408 -0.13314082 -0.29757285
0.363803 0.16963415 -0.2722881 0.056348134 -0.0750142 -0.32653022 0.24923006 0.48639527
0.43722472 -0.2576424 0.6363048 -0.19865033 -0.14949779 0.12904319 0.18771027 -0.1106118
-0.07450443 -0.43992352 0.24725519 0.46829405 -0.35059243 -0.18698552 -0.32943916 -0.5367536
-0.035643913 -0.1363223 -0.012947528 0.12606645 0.0071786526 0.16343436 -0.40203083 0.5003517
0.1562874 0.1666761 -0.4450511 0.122382216 0.0020840485 -0.17307338 0.20463759 -0.193311
0.41328597 -0.3403685 0.49051166 -0.9475545 0.5035236 0.46881595 0.3601214 0.13840109
0.261856 -0.43919083 0.35935643 0.3456633 1.11739 0.5103391 0.027170045 0.108620055
0.3112153 -0.14170931 -0.41845247 0.7047553 -0.57149374 0.47419024 -0.16867328 0.050737754
-0.24477111 -0.22950949 -0.9393169 -0.3051549 -0.010966148 -0.7368495 -0.19666135 -0.012904811
-0.14443675 0.008480641 -0.24617028 -0.035485405 -0.28853175 0.029552735 0.36761495 0.058425397
0.7977444 0.37721097 0.116659045 0.0933255 0.32162103 0.10135228 -0.22050302 -0.21066827
0.1396914 -0.09919458 -0.6955235 -0.4823023 0.7377305 -0.30823898 -0.34944904 -0.16026238
0.2785014 -0.22053657 -0.42673087 -1.1349735 -0.10148473 0.56897163 -0.9653783 -0.14978278
0.27661902 -0.3017919 0.057424728 0.0864792 0.29632148 0.4422423 0.8988254 -0.07603155
0.6169094 0.121932685 0.073519714 0.34655726 0.46109486 -0.5574808 0.12876946 0.03372398
0.113084 -0.44652104 -0.48045114 0.36007237 -0.00877196 0.15822302 -0.19057725 -0.041982908
-0.2397577 0.011078817 0.5504249 -0.8506679 -0.031220132 -0.36339402 -0.5541783 -0.40552425
0.113795996 0.011294499 0.3134353 0.255539 -0.5493895 -0.19983335 0.26008964 0.023303282
-0.15646584 -0.32940516 -0.024257984 0.42825976 0.18181345 -0.8670786 0.10800866 -0.36366507
0.21588285 0.7311374 -0.11853023 -0.11404085 -0.5051286 0.10584507 0.28919932 0.25354677
-0.13186303 -0.17494965 0.6859709 -0.09374051 -0.30408007 -0.6822053 -0.28541777 -0.25626877
0.14131512 0.45828187 -0.3638605 0.017768558 -0.12718786 0.42440927 -0.12701857 -0.7992143
-0.22435395 -0.29867598 -0.24331076 -0.14536652 -0.10361567 0.88663083 -0.32191953 0.05185161
-0.5397485 0.0007640791 -0.44556633 -0.044275317 0.60084265 -0.2755461 -0.20096081 -0.019394686
0.18492761 -0.015446238 -0.3950672 -0.41566792 -0.66005236 0.14403045 -0.048516463 0.10594108
-0.12570044 -0.065200225 1.0902205 -0.19596559 0.3110782 -0.5150655 0.51686716 0.0739503

lstm.weight_hh_l0 f4 [128, 32]
00000000: 140f 90be b598 0a3f 6b2f 66ba 79d0 c43e
00000010: b71c 31be 935f f0be ede8 43bf 39d6 e7bb
00000020: 7189 c7bf 26ec e33d cf16 983e 807a 1fbe
00000030: 3908 433f 7c8f d33d 50fa 943f 5114 60bf
00000040: 2dbb e93f 1abb 1e3f e0c4 cebf 28a6 873f
00000050: 9b3b 23bf 9793 963d 9e23 153f 18cd 5dbe
00000060: 1867 6bbe d985 a1bd b3cf 013f 42da 54bf
00000070: 513b e5bf d0a0 b23e 4adc 113f e222 5a3f
00000080: a488 45be 073e a8bc 9528 233e 62d4 88be
00000090: f413 6dbf 4a26 d1be f4e1 93bf 43c3 353f
000000a0: 77a3 02bf ffa9 ffbd 0157 9dbe 4236 2cbf
000000b0: 253d e33e 2a66 c13d e679 093f 32b3 bebe
000000c0: ff36 443f a240 c93f fadc 89bf 42aa 0e3f
000000d0: 5c95 4cbf 58ad 07bf 933b 95bf df20 07bd
000000e0: 358d 47bf a615 f3be 20dc 68bf 41c4 e63e
000000f0: 49ba 873f 81cb ab3e f4d8 193f c8f7 01bf
00000100: b2dc 753f 634b 223f 819a 80be 606a 943f
00000110: ef76 19be c42e 573f 205d edbd 20da 6fbf
00000120: 7186 c33f abbd 1fbf 8f30 87bd 247b 03bf
00000130: 6395 e33e 8983 dabe 44de abbe ac97 cdbe
00000140: 2506 4b3e 87ac 7e3e be34 47bf f5dd 82bd
00000150: bbf7 523f dc34 723f 3475 c3bf 0aff 0340
00000160: 22cf b2bf aadc 9cbd 095d 0e3d 0b25 7d3f
00000170: 2d28 3abf ed20 58bf d2cd 2cbf f416 2f3f
00000180: f293 0fbf 65d4 2abe c59d a13e be2b 113e
00000190: 012d 86bf 0857 5bbf c011 b5bf ee26 873f
000001a0: 00fb ed3e 939e ec3d 4914 0b3f 6787 2dbd
000001b0: 158e 93bd dfc7 1cbd 7ffd 2d3d 8a9b bf3e
000001c0: 9f7b 92bf bd04 28be 3dd1 403f da11 013d
000001d0: 64cd b0bf 5f71 2f3f 21d5 c4be 1e6c 863f
000001e0: 5563 19be f394 6d3f 9e58 0bbf 2089 a93d
000001f0: 36b7 673f a0a5 573f 6faa dc3f db63 e6bf
00000200: ea16 6abf 546a 8b3f 13a5 1ebf 6d2d 8e3e
00000210: 4d13 ddbe 4b24 833f 78e7 3ebe 5987 15be
00000220: 1f61 c13e a30f a93e 314e debe 23e2 82bf
00000230: 2ec8 29be f1f1 fc3c b86c eabe 4753 3abe
00000240: 63bc 71bf a343 babe 2990 2c3f 9a2e c3be
00000250: ef6a 7a3e 69b6 7c3f 5260 033f 5831 543f
00000260: 7be3 573e ac62 5d3e 6043 d03e 5238 3b3e
00000270: 8b4a cb3e 19b2 3d3e bee7 07be a61c 1abf
00000280: 34d6 bb3f aac6 a0bd e31f 813f af73 6cbf
00000290: 1de5 a3bb e51a 21bf 51e9 793d 6404 2540
000002a0: 041e 08bf 5aed 73bb 790e 903d d2f6 1fbf
000002b0: 100d 2640 aee4 71be e6c2 403e 3ec0 703f
000002c0: fa8f acbe 02c4 af3e 6f03 84bf 272d 8ebf
000002d0: 2187 e43e ae10 5fbf 6462 84bc 3e70 8abf
000002e0: f647 be3f 2856 a63d f56a 5fbf 8960 03bf
000002f0: 6f6b 6dbf 4670 c3bd c692 80bf e967 1cbf
00000300: 0ce9 4d3f cab0 3140 796a 6c3f c9bf f93e
00000310: 9a60 65bf 30f7 d73e 23ec 643f ce62 a53f
00000320: 77d0 f1bf 76bf 03bf 4e1a 033f 3781 35bf
00000330: a1ed f6bb 263a a5be b4a0 c53d 0e24 0c3f
00000340: 6e93 923f fada 553f c52a 8abf 09f5 9a3d
00000350: 2d5e 35bd b86d f3be c149 90bf ccbd 1abf
00000360: 19ce 943d 8f6c 903f e30f 48be 05f1 fb3e
00000370: 6b56 25be d62b 2c3f 6ca6 883f b181 833f
00000380: 271a 3dbf 48ac 8c3e 5bf1 cbbe b75c 39bf
00000390: 423c 0cbe 2b8b 8f3f 8063 1e3f 2eb1 933f
000003a0: dba2 e0bd 560d 27be 703a 873f 10f2 52bf
000003b0: d317 afbe 6efb 653f 5941 1dbf 8b31 763e
000003c0: 3e0f 093f 1894 043e b7e0 973f 1026 2cbf
000003d0: 5e80 ec3e bf4c 0c3f 0944 cc3f 16e9 013f
000003e0: d02a bcbe abf3 db3e 00c9 543f 1550 f73b
000003f0: 7306 b23e 20a7 133f b683 59be dbc3 bc3f
-0.28136504 0.5413926 -0.00087808695 0.38440302 -0.1729611 -0.46947917 -0.7652729 -0.007075098
-1.5588819 0.11129026 0.29704902 -0.15574074 0.7618442 0.10330102 1.1638889 -0.87531
1.8260247 0.62004244 -1.6153831 1.0597582 -0.63762826 0.07352369 0.5825747 -0.21660268
-0.22988546 -0.078868575 0.5070755 -0.83145535 -1.7908727 0.34888315 0.5697676 0.85209477
-0.19290406 -0.02053739 0.1593345 -0.26724535 -0.9260857 -0.40849525 -1.155333 0.7100107
-0.5103068 -0.12483596 -0.3073044 -0.6727029 0.44382587 0.094433144 0.5370163 -0.3724609
0.7664642 1.5722849 -1.0770562 0.5572854 -0.79915404 -0.52998877 -1.1658806 -0.032990333
-0.7794984 -0.47477454 -0.90960884 0.45071605 1.0603725 0.335537 0.6009667 -0.5076871
0.9603988 0.6339628 -0.25117877 1.1594963 -0.14986776 0.84055734 -0.11590028 -0.9369221
1.5275403 -0.62398785 -0.06601059 -0.5135977 0.4444991 -0.42678478 -0.33568013 -0.4015478
0.19826563 0.24870501 -0.77814853 -0.06389991 0.82409257 0.94611907 -1.5270143 2.0624413
-1.3969462 -0.07659276 0.034756694 0.9888465 -0.72717553 -0.8442524 -0.67501557 0.683944
-0.5608512 -0.16682585 0.3156568 0.14176843 -1.0482484 -0.85679674 -1.4146042 1.0558755
0.4648056 0.11553683 0.5432783 -0.042365458 -0.07204834 -0.03827655 0.04247808 0.37423354
-1.1443976 -0.16408058 0.7531927 0.031511165 -1.381268 0.68532366 -0.38443854 1.0501745
-0.14979298 0.92805403 -0.54432094 0.08278108 0.9051393 0.842371 1.7239512 -1.7999223
-0.91441214 1.0891824 -0.61970633 0.27769032 -0.43178788 1.0245451 -0.18642986 -0.14602412
0.3776941 0.33019742 -0.4341903 -1.0225261 -0.16580269 0.030877085 -0.4578607 -0.1819583
-0.9442808 -0.36379728 0.6740747 -0.38121492 0.24454854 0.98715836 0.5131885 0.8288779
0.2108287 0.21619672 0.40676403 0.18283203 0.3970531 0.1852497 -0.13271996 -0.60199964
1.4674745 -0.07850392 1.0087856 -0.9236402 -0.0050016777 -0.6293166 0.061013523 2.578393
-0.531708 -0.003722033 0.070340104 -0.6248599 2.5945473 -0.2362239 0.18824348 0.9404334
-0.33703595 0.3432923 -1.0313548 -1.1107529 0.44634345 -0.87134826 -0.016160198 -1.0815504
1.4865711 0.08121902 -0.8727258 -0.51319176 -0.92742056 -0.09542899 -1.0044792 -0.61096054
0.80433726 2.7764153 0.92349964 0.48779133 -0.8960053 0.42180777 0.89422816 1.2920778
-1.8891743 -0.5146402 0.5121201 -0.7090029 -0.007535652 -0.32270926 0.09649792 0.54742515
1.1451242 0.83537257 -1.0794302 0.07566268 -0.044279266 -0.47544646 -1.1272508 -0.6044586
0.072658725 1.128313 -0.1953731 0.4920732 -0.16146247 0.6725439 1.0675788 1.0273954
-0.7386803 0.2747519 -0.39832577 -0.72407097 -0.13694862 1.1214346 0.61870575 1.1538446
-0.10968562 -0.16313681 1.0564709 -0.8240061 -0.34197864 0.89836776 -0.6142784 0.24042337
0.5353888 0.12947118 1.1865453 -0.6724558 0.46191686 0.54804605 1.5958263 0.50746286
-0.36751413 0.4295934 0.831192 0.0075473883 0.34770545 0.5767689 -0.2124165 1.474727

lstm.bias_ih_l0 f4 [128]
00000000: fc03 cc3e a256 303f 8ffd 2e3f 1108 0f3f
00000010: c72a a9be c839 473d 4788 073f 5758 a73e
00000020: 8713 cebe e285 febe fd5c 783e 111f d23e
00000030: f2fb f23e 89da 553f f051 e7bd 8c48 53be
00000040: 23d5 b0bd d35e a63d 0516 433f b686 573e
00000050: 87da 493e 0308 9b3e 6fbc fb3d f65c 68bd
00000060: 5628 033e 4418 7abb e65a 67bc 305a b43e
00000070: 4c25 803e 679d ca3e bac5 b1be 4548 483f
00000080: 37de f4bd db36 073f 0370 223f f08a 1c3f
00000090: 923b 053f 0932 873e 7567 553e 064d cd3e
000000a0: f577 1b3e ecb3 333f 788b fc3d b25b 113f
000000b0: 1f4c df3d 1357 963e 0fea ed3d c58d fd3e
000000c0: aaae 093d 4c92 353f 0896 093f fb23 0f3f
000000d0: 1345 c23e a711 8e3e 6e90 dc3e 0246 0c3f
000000e0: 5237 a33e 97e9 6c3f 5128 4e3e 246a a53e
000000f0: d5e7 863e 668f 043f 9396 4d3f 3def c43e
00000100: c1b6 83b9 e9f3 933e 99ef febd 9327 a8bb
00000110: 56e2 da3d 9874 e1be 8e86 e13e cf21 bf3d
00000120: 586e 083d bf71 243e d389 853e 34f2 ecbd
00000130: c666 75be 9d69 553d aa69 2abe 37cd 42be
00000140: fd90 603e 86de 5abd 5d18 653e 41b9 073d
00000150: 8936 8f3d 1ad9 b43e a968 43be 6b44 843e
00000160: ca44 463d 14b2 063e b67d c1bd 6c5d 8fbc
00000170: 3251 41bd bd5e 1d3e dd95 1e3d 88fb babd
00000180: 4004 0c3f b153 86be acad 6b3e c9cf f13e
00000190: d64b b63e e191 07bc 3ea7 c23d 0320 2bbd
000001a0: d31f 8f3e c610 8e3d d6a2 783e 0a4f 4b3d
000001b0: c779 253f 0a9d 1c3f 9e52 973d 7677 933e
000001c0: db6c 973e a124 253e 912b 0b3f 380d e93e
000001d0: 17a3 8d3e a139 0b3f 9f01 663e 3897 8a3e
000001e0: b664 e43e 426f 883e 4aae 1b3f af9c 093e
000001f0: ba2d e83d 7d18 f83e 5c3d 0f3e cd58 333f
0.3984679 0.6888219 0.6835565 0.55871683 -0.3304045 0.04863909 0.5294232 0.32684585
-0.40249273 -0.4971152 0.24254222 0.41039327 0.47457844 0.83536583 -0.11294925 -0.20633143
-0.086344026 0.08123555 0.76205474 0.21047482 0.19712268 0.3027955 0.122918 -0.05672928
0.12808356 -0.0038161436 -0.014120793 0.35225058 0.25028455 0.39573213 -0.34721166 0.78235275
-0.119564466 0.5281808 0.63452166 0.611495 0.5204402 0.2640536 0.20840247 0.40097827
0.15182479 0.70196414 0.12331289 0.5678054 0.10903191 0.29363307 0.11616909 0.49522224
0.03361384 0.70926356 0.53744555 0.55914277 0.37943324 0.27747843 0.4307894 0.54794323
0.31878144 0.9254393 0.20132567 0.3230754 0.2634875 0.5178131 0.80307883 0.38463774
-0.0002512243 0.28897026 -0.124480434 -0.0051316707 0.106877014 -0.44034266 0.4404797 0.0933262
0.033308357 0.16059016 0.26081714 -0.11569634 -0.23964986 0.052102674 -0.1664187 -0.19023596
0.21930309 -0.05343487 0.22372575 0.033135656 0.06992824 0.35321885 -0.19082893 0.2583345
0.048405446 0.13153869 -0.094478056 -0.017500602 -0.047196575 0.15368171 0.03871714 -0.09130007
0.54693985 -0.26235726 0.2301547 0.4722884 0.35604733 -0.008274526 0.09504555 -0.041778576
0.27953967 0.06936793 0.24280867 0.049635924 0.6463894 0.6117712 0.07388805 0.2880208
0.29575238 0.16127254 0.5436335 0.45517898 0.2766349 0.5438481 0.22461556 0.27068496
0.44608086 0.26647383 0.6081282 0.13438676 0.11336847 0.48456183 0.1398825 0.70057374

lstm.bias_hh_l0 f4 [128]
00000000: 817b bd3e 662d 153f 185a 593f 2c09 063f
00000010: ad3a eabd 35d7 2fbe afeb e13e 1b56 b53e
00000020: eed5 0bbf 6747 a9be 01ac 113e c217 d43e
00000030: 5f6c 5d3e 2e17 423f 6fc3 4f3b 2a9f aa3d
00000040: afb8 7d3d 118e 3b3e 34ca 093f 06b0 f23d
00000050: af8f 8e3e 8bce 123f 6594 793e 4a0c b9bd
00000060: b9fd 403e 1f96 b73c eb1c 16be c197 c93e
00000070: deeb ca3d c9cc 963e 9235 0cbf b610 433f
00000080: bcd9 3abe 5a81 133f 5a88 af3e 03de ec3e
00000090: 4bef e83e e8d7 c53e 0ab7 563e 7970 d53e
000000a0: 52e5 ef3e 858a 3c3f bf96 c83e bac8 f83e
000000b0: 072c b13e c619 873e 3946 173e da37 1c3f
000000c0: 39fc 453e 0642 223f 9d7c 5b3e 629f 1a3f
000000d0: 01d6 003f 17a7 fa3e 92da 083f a34f 243f
000000e0: 8376 b73d dbef 1f3f 3efc bf3e 1912 503e
000000f0: 06c2 903e 9acd fb3e 3e7e 213f 5520 053f
00000100: e8b5 21bd 940a 893e 5c0f 3e3c 2935 27bd
00000110: 17d8 4f3d 1d2d 95be c73b 063f 5ac9 fcbd
00000120: 65b0 b7bb 8979 783e 4edc c83d 3d3b efbd
00000130: 495a 7abe 9fb1 75bd b3a3 78bd 6088 3dbe
00000140: f982 6d3d fb72 46bb 5a2b ea3e 887c bfbd
00000150: 02c7 963d 4a5a a73e b70b 203c 1bec 283e
00000160: 3d32 32bc 63af 6dbd dd98 da3d 2954 85be
00000170: 71d3 21be be03 09bd 49bc da3d 320d f4bd
00000180: 3fde 143f e537 3ebe a216 cc3d ce95 c13e
00000190: 6174 883e 67f6 2b3d 5ae9 383e cb61 c8bb
000001a0: 1702 fc3e 06b1 bc3e 8485 933e 31e2 5abb
000001b0: a1ef 453f 0315 0b3f 1057 4abd 6ea0 bf3e
000001c0: b51f 173f ae4f b03d 3ce0 ba3e a6f6 003f
000001d0: e1af 653e 29f7 bb3e 4a89 9d3e c9a6 a33e
000001e0: 20ec c63e c37e 143e ad7d f03e 55ba 453e
000001f0: bbd1 8a3e 10f7 093f 295f d73e 4aa6 4a3f
0.37008289 0.582724 0.849031 0.52357745 -0.11436973 -0.17171939 0.44125125 0.35417256
-0.54623306 -0.33062288 0.1422577 0.41424376 0.21623372 0.7581662 0.003170218 0.083311394
0.061943706 0.18315913 0.5382416 0.1184998 0.27843997 0.5734641 0.24373014 -0.09035547
0.18846788 0.02241045 -0.14659469 0.39373592 0.09908269 0.29453114 -0.5476924 0.76197374
-0.18247122 0.5761925 0.34283715 0.46263131 0.45495066 0.38641286 0.20968261 0.41687372
0.46854645 0.73648864 0.3917751 0.48590642 0.34603903 0.2638685 0.14772882 0.6102272
0.19334497 0.63381994 0.21434255 0.6039945 0.50326544 0.48955604 0.5345851 0.64184016
0.08958151 0.62475365 0.37497133 0.20319404 0.28273028 0.491803 0.63083255 0.5200246
-0.03948012 0.26765883 0.011600342 -0.04082218 0.05074319 -0.2913598 0.52434963 -0.12343092
-0.0056057447 0.24265112 0.09807645 -0.11681221 -0.24448504 -0.059983846 -0.06070299 -0.18509054
0.057986233 -0.0030280936 0.457362 -0.09349924 0.073621765 0.32686073 0.009768418 0.16496317
-0.010876236 -0.05802859 0.106736876 -0.26040772 -0.15803315 -0.033450834 0.10680444 -0.11916579
0.5815162 -0.1857601 0.09965254 0.37809604 0.2665129 0.041983034 0.18057767 -0.0061151735
0.49220344 0.36853808 0.28812802 -0.003339898 0.7731877 0.54328936 -0.049399436 0.37427086
0.59032756 0.08608948 0.36499202 0.50376356 0.22430374 0.36712006 0.30768806 0.31963184
0.38852024 0.14501481 0.46970883 0.19309361 0.27113137 0.5389261 0.4206479 0.79159987

lstm.weight_ih_l1 f4 [128, 32]
00000000: 4503 e63e caa7 38bf 6741 5c3e e7f9 713f
00000010: 8e3b 28bf dce6 0c3e b0bc 8c3e 61b0 e3be
00000020: b153 083e 2962 e43e e6fc b9bd 9ce9 f2bd
00000030: 69a9 2fbe 262c 72be d122 b83e 04e9 16bf
00000040: 1f4a 223f 83e6 d2bd c4bb 9ebe db50 b23c
00000050: acf5 10bf 6dcf 1ebe 84cf 273e 2805 1a3e
00000060: 2dce c03e 2a12 893e 1c85 6cbe d0e0 5cbe
00000070: 7dd7 403e dcfa af3e 83d7 25bf 5ffb 993d
00000080: c032 823f f6c3 1bbf d3c9 5e3e 1504 1dbf
00000090: c0b8 e1be ea29 b0bd a812 54bf f72d 0c3e
000000a0: 5c1b 87bf 86e2 37be afe3 4c3e 692b debe
000000b0: 410e 83be 9b52 b6bc 8514 3c3f abbf 50be
000000c0: 9784 c53e 84db f4bd 7bf0 d43e a55f 9e3d
000000d0: 4cf5 49bf f82a 0c3e a52b 1b3f 4371 a0bd
000000e0: 36a2 b2be 915f cb3e 2eed dcbd 6ac9 a43e
000000f0: a437 05bf c78d f13d 7a4f 933f 7f70 343f
00000100: 4ef9 9ebe 10cf 63be 1a7c 023e cd6c 6c3e
00000110: a9b4 13bf 7976 5c3e 1953 debf ccd0 54be
00000120: 8316 003f 3328 1d3f 96b1 76bf 2387 d23e
00000130: 44d0 173f bf1d 1a3f 1ea4 2fbe f0a8 023f
00000140: 33fa 0d3f 61f7 2ebe 0bc3 8abe af75 44be
00000150: 3fcf db3c b2c5 253e 0e8e 84be 81bb 393e
00000160: eca4 89bf bbb8 9d3e 7e8d 9e3e b4ba 3dbe
00000170: 07ec 0d3e d290 3c3c f09f 2e3f 6015 78bd
00000180: ab74 eebe 86b0 5c3d 4bdc af3d d831 3cbe
00000190: 7389 5a3f ddd1 00bf 7620 e5bc d68f dd3e
000001a0: 718a 99bd 4f57 583e 9dd4 94bf 6250 06be
000001b0: e590 bfbe bead 3bbf 0bc6 bcbd 1708 363f
000001c0: 6554 1c3e 004d 063e 8740 fdbe 158e a73e
000001d0: c0e3 003f 64a0 11bf d75c ddbd c880 9c3e
000001e0: 998a 3b3f cda5 edbe ad25 153f dd67 643f
000001f0: 4c2c f8be 5e9d d6be 0261 ccbe 68ab c9be
00000200: bebe 2b3f 9bae 8bbe 9228 8b3e bb82 973d
00000210: 4593 39be 7a77 14bc 0b4f 37bf 9cdb 60bb
00000220: 2ccb b73c 3e8f ee3e 8d50 0e3e ceab c6be
00000230: e8b4 c73e 3152 993e cc5e 853d ea4f 6abf
00000240: d494 203f 3b57 32bf f738 f5be 29d8 563e
00000250: 7f53 64bf af06 9fbd 04d2 213f 9f79 ab3e
00000260: d166 483f a91a 0b3f 4a34 ff3e 01c0 50be
00000270: 18e8 babe 9abe 07bf 0bb2 1e3e 2c26 ab3e
00000280: 973a b63a e368 cfbe 60d6 92bd 9c94 bb3e
00000290: 3c4e 80bf 8d65 d13e 1228 9bbe 22c6 623f
000002a0: 6253 21bf 53c7 053f 193c b43d b6ed e6bd
000002b0: ca43 02bf 99da 0b3f 2ecc 863e 6c61 9d3e
000002c0: cdf6 bd3e fd6d 08bf 51d2 24bf 1cfb ae3f
000002d0: 6b43 973e d048 c5be 3c77 e03b df9e e83d
000002e0: c609 563f f02b ae3c 7906 14bf 55c6 223f
000002f0: b148 3b3f 14e6 39bf 599c a2be 7e7b 6b3d
00000300: 8575 00be 3462 dabe 0fc3 b1bc 068a 97be
00000310: 5e75 a53d 9564 11bf 97a5 fabd 6ea3 cfbe
00000320: 381f 983f 9b84 c53e c2d4 8ebe f6e1 a6be
00000330: 8f32 9e3d 55b5 433f 86df a63e 40e2 6bbe
00000340: 7d73 133f ecfc bfbe f56e 65be 1ece 983d
00000350: 1d0a 1e3f ca95 343e 3853 063f 8449 fd3d
00000360: 2f0f 2cbf 176f 50be 5058 003e 974e 92bd
00000370: 4c0c f6be e407 e1bd b7ca 3f3f 146c b13e
00000380: 0720 0a3f 72c5 5dbf ae6a 5a3e 8e6c 013f
00000390: 7fb4 9dbf dbba b2be af72 3bbf 78fc 2b3e
000003a0: e312 67be f1b6 f13e 843f 7c3f 4e34 f93e
000003b0: 92e1 de3e d149 e8be 5052 ce3e 42c6 cb3d
000003c0: 6d69 e83e d950 4abf ab57 b03d 6285 123f
000003d0: 8051 d83e 007f 2ebe 2a57 593f 3a10 86bd
000003e0: 016c f53e b71b 233c 3a16 9ebb f5db 493e
000003f0: cb9a 39bf 4911 acbe f71f 1a3f b5db 0a3f
0.4492437 -0.72131026 0.21509324 0.94521946 -0.65715873 0.13759941 0.27487707 -0.44470504
0.13313176 0.4460614 -0.0908144 -0.11860964 -0.17154469 -0.23649654 0.35964063 -0.58949304
0.6339435 -0.10297873 -0.3100263 0.02176707 -0.56624866 -0.15508814 0.16387755 0.1504103
0.376573 0.2677167 -0.23097652 -0.21570134 0.18832202 0.34371078 -0.6478197 0.07518648
1.0171738 -0.6084589 0.21756677 -0.61334354 -0.44086266 -0.086017445 -0.8284097 0.13689409
-1.0555224 -0.17957506 0.2000873 -0.43392494 -0.25596812 -0.022256186 0.7346881 -0.20385616
0.3857772 -0.11955932 0.41589722 0.077330865 -0.7888992 0.13688266 0.6061347 -0.07834103
-0.34889382 0.3972135 -0.10787426 0.32184917 -0.52038026 0.1179462 1.1508629 0.70484155
-0.3104958 -0.22246957 0.12742653 0.23088379 -0.5769754 0.21529569 -1.7369109 -0.20782775
0.5003435 0.61389464 -0.96364725 0.41118726 0.59302163 0.6020164 -0.1715245 0.5103903
0.554599 -0.17086555 -0.2710193 -0.19185518 0.026832221 0.16188696 -0.2588963 0.18137933
-1.0753455 0.30805 0.30967325 -0.18528253 0.13859569 0.011509137 0.68212795 -0.06056726
-0.46573386 0.053879283 0.085869394 -0.18378389 0.8536598 -0.50320226 -0.02796958 0.432738
-0.07497109 0.21127056 -1.1627384 -0.13116601 -0.37415233 -0.73311985 -0.09217461 0.71106094
0.15266569 0.1311531 -0.49463293 0.32725587 0.5034752 -0.5688536 -0.108087234 0.30567002
0.7325836 -0.46415558 0.58260614 0.8922098 -0.48471296 -0.41916937 -0.3991776 -0.39388585
0.67087924 -0.2728165 0.2717939 0.07397982 -0.18122585 -0.009061689 -0.71604985 -0.0034310585
0.022435747 0.4659366 0.13897915 -0.38802952 0.39005208 0.2994552 0.06512222 -0.9152819
0.62727094 -0.69664353 -0.47895023 0.20980896 -0.89189905 -0.07764947 0.63211083 0.33491227
0.78281885 0.54337555 0.4984458 -0.20385744 -0.36505198 -0.5302521 0.15497606 0.3342756
0.0013902959 -0.4050971 -0.07169795 0.36636817 -1.0023875 0.4089779 -0.3030401 0.88583577
-0.6301786 0.5225727 0.08800525 -0.112758085 -0.5088469 0.5463043 0.26327652 0.3073839
0.37102357 -0.5329283 -0.6438342 1.3670382 0.29543623 -0.38532114 0.0068501513 0.11358427
0.83608663 0.021261185 -0.57822376 0.6358388 0.73157793 -0.72616696 -0.3175991 0.05749082
-0.1254483 -0.42653048 -0.021699456 -0.2959749 0.08079027 -0.567941 -0.12238615 -0.40554374
1.1884527 0.38577732 -0.27896696 -0.3259427 0.07724487 0.76448566 0.3259241 -0.23035526
0.57598096 -0.37497652 -0.22405608 0.07461189 0.6173418 0.17635265 0.5247073 0.123675376
-0.6721067 -0.20354877 0.12533689 -0.07143896 -0.48056257 -0.10987833 0.74918693 0.3465277
0.5395512 -0.866294 0.21329758 0.50556266 -1.2320708 -0.34908184 -0.7322187 0.16795528
-0.22565798 0.47209886 0.9853442 0.48672718 0.43531471 -0.45368817 0.40297174 0.09949924
0.45392933 -0.79029614 0.08610471 0.57234776 0.4224968 -0.17040634 0.84898627 -0.06546064
0.47933963 0.009955338 -0.004824427 0.19712813 -0.7250182 -0.33606938 0.60205024 0.54241496

lstm.weight_hh_l1 f4 [128, 32]
00000000: 73dc 6d3e 4210 84bd e8e7 50be 4e99 84bf
00000010: 6228 e23e fa90 4ebf 4b44 2bbf aef3 52bd
00000020: e023 56bd 25ab 22bf 2988 053f f781 aa3f
00000030: 871f acbd f1ef 02bf a8a7 91be 8728 833c
00000040: b87d 06bf 343d 17c0 5e7a 52bf 6087 ca3e
00000050: aeb1 3cbf 0bf2 e4bd 8f19 eebe 4877 8e3e
00000060: baa4 fbbe 0b9a a63f 5911 233f 65b1 bebe
00000070: 0be4 1e3f 2b71 9dbf 130d 0dbf 8e71 af3f
00000080: ae69 293f 73e3 94be cc3d a43e 0b6a 2abf
00000090: 0b59 743d e104 db3e aa66 633e 7f81 bbbe
000000a0: 3493 82bf a32e 993f 0c94 31bf d33f 583d
000000b0: 4a29 31bb 8bf2 1dbe 3e24 dbbe 58a8 ab3d
000000c0: 7433 3f3e 252c d4bf feee 80bd 01e1 e7be
000000d0: d853 cbbe 71bb 743e 7246 cdbe e642 b23e
000000e0: c963 31bf 1bf8 1a40 c3d4 9a3f 5702 a23e
000000f0: 08f2 4a3f fdd0 54be e9fb f9be 9a6a 043f
00000100: 7073 2ebf dac7 6c3d e6eb 213e d920 933f
00000110: 42be 1a3f c602 a63f bac0 0cbc d876 533d
00000120: cc28 d5be d1ba 5ebe 63aa 463f 1ef2 4fbe
00000130: b708 ec3e c064 3fbf 2cf8 313f d524 9cbe
00000140: beb7 1dbf 5bcc 5ebe 5a7f 433f d262 453f
00000150: cdfb d9be 6e88 a9bf fb63 8e3e d5e8 a0bd
00000160: 1383 733c 4509 763f 17b4 2e3e 82d6 54bf
00000170: 2bb8 2d3f 4253 4d3f 938e a1bf 83b4 43bf
00000180: 978c 333f ab80 94bf f0ef 9dbe c70d 32bd
00000190: 9f17 b4be b827 13bf 9e7b e2be 0adf 313e
000001a0: 395a 653e e23e 8e3f ad21 e4be c40f 57bf
000001b0: c884 29be c079 513f 51ef 48be 3b36 35be
000001c0: 6a1c 0d3e 5bc0 c4bf fb1f 4ebf 2e6b 28bf
000001d0: a220 70be f668 aebf 8584 54bf 0ba1 24bf
000001e0: 3de7 76bf 4133 bcbe 7983 ba3f 1bba 8c3f
000001f0: 9353 8a3f ae03 3ebf 1fec 02bf 59fd 5c3f
00000200: 2b51 f8be 3791 403d c3c0 eabe 8670 12bf
00000210: 9c80 173f b76f 2cbc 77ce 9fbc fb13 db3e
00000220: 3163 543f 3f26 083f c464 1e3f c922 a23d
00000230: ee4d 9c3d e066 493f 9855 a23c 4e31 9dbe
00000240: f3a4 003e e041 50bf b4c5 823f 4ee9 06bf
00000250: 993a 12bf fdc3 89bf 4c8a 85be d242 4040
00000260: 0af4 993e cf47 51be 0c51 763e af55 483f
00000270: 9636 b23f 6873 fa3e 239b 8cbf e33d 04bf
00000280: 0923 0dbe 604d 1b3f 6f3f 583f bdeb dbbe
00000290: e25b 30bf 6c4c 99be ee98 fdbe 513f 7e3e
000002a0: be9f 4f3e 466f af3f 868f 213f 03c3 6b3f
000002b0: 623e 1dbf 2687 07be c6c3 593f 120e 72bf
000002c0: eb0c e83f bdbf 2b3d da77 703f af59 25bf
000002d0: 5cae 8cbf aee3 8dbe f57c 0c3e b0e4 793e
000002e0: e0c1 c1be 6945 b43f 2736 663f c34e 483f
000002f0: 276b 83bf 2268 163e 1df8 b33e 7327 7e3f
00000300: 9a0f 5ebf 82c8 e6be 04d2 8c3d 58b1 193f
00000310: 8aac 883f 9250 97be 9901 e0be 18f4 0d3f
00000320: 42f3 b2be baff 1f3e de9e 3d3e 5c04 cd3e
00000330: 7b14 8fbf 00bb b93e ded2 81be 0031 34bf
00000340: 7853 1b3d 8941 4ebf 6454 033b 6ac2 38bf
00000350: 1feb 19bf 0f00 c1be 52fc 523e 34fb d5be
00000360: 1644 9cbf 0f99 ca3e e3fe 1e3f 7e32 e9bd
00000370: 864d 933f 0338 3ebf d58a 113f 9403 ea3e
00000380: 6c32 e13e b118 ac3e 3d8e 933f 96d1 7bbf
00000390: d30c ea3e cc89 2abf 4a89 3dbf 69d8 823d
000003a0: 2588 e83e 147e 1d3f 69f5 a63e 84fd 9b3e
000003b0: cf20 debd 9874 60be f9a5 0abf 8a98 07bf
000003c0: 366b 853f 9a3a 22be afbd 3a3f 7027 aabd
000003d0: d4b3 5cbf 156a 95bf 3ec3 763f 7aca c9be
000003e0: 9cd0 ea3e b851 a73f 964a 623f cb46 a2be
000003f0: 2a41 3abe e756 023e 2402 47bf c807 8fbf
0.23228626 -0.064484134 -0.20400965 -1.0359285 0.44171435 -0.80689967 -0.6690108 -0.051501922
-0.052280307 -0.63542396 0.5216089 1.3320912 -0.08404451 -0.5114737 -0.28448224 0.016010536
-0.5253558 -2.3631105 -0.8221797 0.39556408 -0.7370862 -0.111789785 -0.46503875 0.2782538
-0.49149114 1.301576 0.63698345 -0.37244716 0.62066716 -1.2300161 -0.55098075 1.3706529
0.6617688 -0.2907978 0.32078397 -0.6656806 0.05965523 0.4277716 0.22207132 -0.36622235
-1.0201173 1.1967357 -0.69366527 0.052795243 -0.0027032667 -0.15424554 -0.42801088 0.083817184
0.18671972 -1.6575972 -0.06295584 -0.45288852 -0.39712405 0.23899628 -0.40092808 0.34816664
-0.69292885 2.4213932 1.209618 0.3164241 0.7927556 -0.20782848 -0.48825005 0.5172516
-0.68144894 0.05780778 0.15812644 1.1494399 0.6044656 1.2969596 -0.0085908715 0.05162701
-0.41632688 -0.21750952 0.7760374 -0.20307204 0.461004 -0.7476311 0.69519305 -0.3049685
-0.61608493 -0.21757643 0.763662 0.7710391 -0.4257492 -1.324476 0.27810654 -0.07856909
0.0148627935 0.96107894 0.17060886 -0.8313981 0.67859143 0.80205166 -1.2621635 -0.76447314
0.701364 -1.1601766 -0.3084712 -0.04347017 -0.3517427 -0.5748248 -0.44234937 0.17370239
0.22397698 1.111294 -0.44556943 -0.8400843 -0.16554558 0.818264 -0.19622542 -0.17696469
0.1378037 -1.5371202 -0.8051755 -0.65788543 -0.23449948 -1.3625782 -0.8301471 -0.6430823
-0.9644659 -0.36757854 1.4571372 1.0994295 1.0806755 -0.74224365 -0.5114154 0.8632408
-0.48499426 0.047013488 -0.4585019 -0.5720295 0.5918062 -0.010524682 -0.01950763 0.4278868
0.82963854 0.5318336 0.61872506 0.07916791 0.076320514 0.786726 0.019816205 -0.3070168
0.12562923 -0.8135052 1.0216584 -0.52699745 -0.5712066 -1.0762936 -0.26082075 3.0040784
0.30069 -0.20437549 0.24054354 0.7825574 1.3922908 0.48916173 -1.0984844 -0.5165693
-0.13782896 0.6066494 0.8447179 -0.42953292 -0.688902 -0.29941118 -0.4953074 0.24828841
0.2027578 1.3705833 0.63109624 0.9209444 -0.61423314 -0.13235149 0.8506435 -0.9455272
1.8128942 0.041930903 0.9393288 -0.6458997 -1.099071 -0.27712768 0.13719542 0.24403644
-0.37843227 1.4083682 0.8992638 0.7824518 -1.0267075 0.14688161 0.35150233 0.99278945
-0.86742556 -0.4507485 0.06875995 0.6003623 1.0677655 -0.29553658 -0.4375122 0.5545058
-0.34951216 0.15624896 0.18517634 0.40042388 -1.1178125 0.36275482 -0.2535619 -0.7038727
0.0379214 -0.8056875 0.0020039314 -0.7217165 -0.6012439 -0.37695357 0.20604065 -0.41793215
-1.2208278 0.395699 0.62107676 -0.11386584 1.1508033 -0.7430422 0.56852466 0.45705855
0.4398378 0.33612588 1.1527783 -0.9836668 0.4571291 -0.6661651 -0.7403761 0.06388933
0.4541637 0.61520505 0.32609108 0.30466855 -0.108461015 -0.21919477 -0.54159504 -0.5296713
1.0423343 -0.15842667 0.72945684 -0.08308303 -0.86211896 -1.1672999 0.96391666 -0.3941229
0.4586228 1.3071814 0.8839506 -0.31694636 -0.1818892 0.12728463 -0.7773764 -1.117425

lstm.bias_ih_l1 f4 [128]
00000000: 9f8f 86bf 698f 86bf 2be8 18bf 8baa 30bf
00000010: f99f aebf 686e adbf 0ac6 9fbe 19ec 8cbf
00000020: de28 8bbf f24e 00bf 4a8d 36bf de09 26bf
00000030: b7ab 51bf e164 90bf 4929 05bf 090a 80be
00000040: 654f 82bf a995 8dbf 231d 52bf a0f4 13bf
00000050: d02e 61bf 34c4 15bf 8577 3dbf c338 a3be
00000060: 2ce8 10bf b238 26bf e353 89be 04c5 a1be
00000070: 596c 91be 94ce c1bf 3fea 6dbf ac2b 40bf
00000080: d54f 373f 0ab2 febe 6058 133f 4b02 bc3e
00000090: 3752 8cbd 5771 88be b68d 6c3f 3d08 dd3d
000000a0: 1b35 183f c3c2 8b3f 3c05 4d3f e5b7 f83e
000000b0: 6431 683e 9a28 aa3e 86c7 7a3e 1fed cc3e
000000c0: 743b f63e 2c91 2bbd 1abe 0e3f 1915 293e
000000d0: 46de 1a3f 446c 0e3f 3b0e 293f 8c7c 213e
000000e0: 0f0a d43e 3397 5b3e df2a f13e ad80 263e
000000f0: d80c 053e db76 ec3e a65b 673e 3703 a23e
00000100: 5a57 0f3d 7aae 423c 885c 15be d1d5 3a3f
00000110: e2b0 8cbe 1670 a93d cd7c 12be 806e f4be
00000120: 6d73 a43d 015f afbd 3870 26be 25a3 c1bb
00000130: 32a7 8f3e 2ece 723d 64c1 713e 778a ab3e
00000140: f828 583b 7bf0 023f 2c8d 49be 61e8 83bc
00000150: a30d 58be 21bc c03d d03b 863e 8933 3f3c
00000160: b739 4abd 7b67 8fbe a145 cebe 2e06 cebe
00000170: 279b 1dbf 7240 b5bd 1ec0 0a3e 37b5 f0bd
00000180: 3a92 61be 0204 c5be df16 a7bd ab37 8dbe
00000190: 55ee 35bf 66df 40bf 77fa 3abe d3cb bcbe
000001a0: bc14 0bbf 5d84 a1bd 5a2d a6be d07b fbbd
000001b0: 6567 90be b84c 95bf 0a89 26be afaf 25be
000001c0: 83c6 09be 9725 29bf 2cc1 04bf 8502 a9be
000001d0: de07 fabe c5b1 dabd aeca 08bf c866 cfbe
000001e0: f6da 83bd 0e43 813e 18d9 f3bd 5885 78bc
000001f0: cb5c 793e 30d9 1fbf 4f5a 63bf bc5d f6be
-1.051258 -1.0512515 -0.5972926 -0.6901023 -1.364257 -1.3549318 -0.3120578 -1.1009551
-1.0871847 -0.5012046 -0.7130934 -0.64858806 -0.8190264 -1.1280786 -0.5201612 -0.25007656
-1.0180479 -1.1061298 -0.8207571 -0.57795143 -0.87962055 -0.5850251 -0.740105 -0.31879243
-0.56604266 -0.6493026 -0.26821813 -0.31595623 -0.28402975 -1.5141168 -0.92935556 -0.7506664
0.7160619 -0.49745208 0.57556725 0.367205 -0.06851619 -0.2664897 0.92403734 0.10792587
0.5945603 1.0918812 0.8008611 0.485778 0.22675091 0.33234102 0.24490175 0.4002466
0.48092234 -0.041886494 0.5575882 0.16511954 0.6049541 0.5563395 0.6603734 0.15770167
0.41413924 0.21444397 0.4710302 0.16260023 0.12993181 0.4618443 0.22593555 0.31643078
0.034995414 0.011882419 -0.14586079 0.7298251 -0.274787 0.08273332 -0.1430542 -0.47740555
0.08029828 -0.085630424 -0.16253746 -0.005909341 0.28057247 0.05927866 0.23608929 0.33504078
0.0032983404 0.51148194 -0.19682759 -0.016102018 -0.21098952 0.09410883 0.26217508 0.011670002
-0.049371447 -0.28008637 -0.40287498 -0.4023909 -0.6156487 -0.088501826 0.1354985 -0.11753314
-0.22028437 -0.3847962 -0.08158659 -0.27581534 -0.7106679 -0.7534088 -0.18259607 -0.36874256
-0.54328513 -0.078865744 -0.32456475 -0.12279475 -0.28203884 -1.1664038 -0.16263214 -0.16180299
-0.13454632 -0.6607298 -0.51857257 -0.33009735 -0.48834127 -0.10678438 -0.53434265 -0.40508103
-0.06438248 0.2524647 -0.11906642 -0.01516851 0.24351804 -0.62440777 -0.88809675 -0.4811839

lstm.bias_hh_l1 f4 [128]
00000000: f6c4 81bf 4725 90bf e4eb 36bf eb27 f8be
00000010: 09d3 a3bf b700 a5bf 37a6 a8be 8a51 7ebf
00000020: 3429 9bbf f8d9 1abf ed00 dbbe 1517 2cbf
00000030: 2a87 88bf 577e 89bf 3b84 89be f0e9 dcbe
00000040: 11c8 89bf 8547 93bf 34bb 24bf 2fd8 60bf
00000050: f259 61bf fbaa 36bf 1f01 1ebf 7795 03be
00000060: 1971 e0be dcd7 00bf 1bcf 49be eccf b8be
00000070: ce37 40be fba4 b1bf ab2d 6fbf ad77 1cbf
00000080: 1309 553f 7ba5 24bf ffa9 133f ae5b 013e
00000090: 0eb4 88be beef 263d 1598 2f3f c2ea 8f3e
000000a0: de73 383f a999 963f 23cb 5d3f 095a 153f
000000b0: ad62 893e e363 013f 49f3 dc3e 9fa4 a83e
000000c0: ab48 b43e a0e5 d93c 9661 4b3f ff61 423e
000000d0: 9285 563f c048 c83e 9800 623f 8ad2 2c3e
000000e0: ff7d e63e 2b72 113e 8581 b13e 147a 8c3e
000000f0: 1b03 6d3e 8cf6 a23e f59b ef3e 24b4 503e
00000100: 4ded 92bd aab5 3e3e 985a 7ebc e84b f33e
00000110: da99 a3be a7dc 3d3e 3455 b4bd 7518 c6be
00000120: 2124 19bd 19ae dc3d e7c4 02be 9049 5fbe
00000130: 5686 783e 4370 863d 545b a93e 6107 cb3e
00000140: 9ed9 94bd 6fa7 ef3e 6709 483d 0ea0 c33d
00000150: 09e8 203d f1a0 fd3d 293f cd3e 52ae df3d
00000160: 410b 1bbe f953 e4bd f652 9bbe bb2e c1be
00000170: 2fa8 08bf 0ee6 5dbe 76c5 cb3d c924 97be
00000180: 1ecb b4be bfcb 0fbf 2044 b3be db3c 17be
00000190: 2593 3abf 3e70 6ebf bc3f 87be 0c8f d9be
000001a0: 6c4b 00bf 8993 4b3d 04f0 52be 1838 1abe
000001b0: d3b4 92bd f522 8abf 613e 34be 5913 14be
000001c0: 9d4a 8fbe 3079 5bbf 168e 81be 1296 c6be
000001d0: a155 09bf da57 dcbd fbbb 33bf c2bc 15bf
000001e0: dfb8 04be 27a8 bf3d eda1 dcbd a2d4 6ebd
000001f0: bd42 a83d e27d 27bf 1ca0 21bf 0a68 0ebf
-1.0138233 -1.1261376 -0.7145369 -0.48467955 -1.2798778 -1.2890843 -0.32939312 -0.9934317
-1.2121949 -0.60488844 -0.42774144 -0.6722272 -1.0666249 -1.0741681 -0.26858696 -0.4314723
-1.076418 -1.1506201 -0.6434815 -0.8782987 -0.8802787 -0.71354645 -0.6172046 -0.12849985
-0.43836287 -0.50329375 -0.1970791 -0.36096132 -0.18771288 -1.3878473 -0.9342906 -0.6112011
0.8321697 -0.64315003 0.5768127 0.1263263 -0.2669987 0.04075598 0.68591434 0.28108793
0.720518 1.1765643 0.8663809 0.5834051 0.26833096 0.5054304 0.43154362 0.32938096
0.3521169 0.026598752 0.7944578 0.18982695 0.8379756 0.39118004 0.88282156 0.1687719
0.45018002 0.14203708 0.34669128 0.27436888 0.23145716 0.31828725 0.46798673 0.20381218
-0.07174168 0.18623987 -0.015524529 0.4751885 -0.31953317 0.18541203 -0.08805314 -0.38690534
-0.03738797 0.10775394 -0.12770425 -0.21805406 0.24269995 0.06564381 0.3307749 0.39654067
-0.0726807 0.4680743 0.04883709 0.095520124 0.039283786 0.12384213 0.4008725 0.10921921
-0.15141012 -0.11148829 -0.30336732 -0.37730965 -0.5338163 -0.2166979 0.09949772 -0.29520252
-0.35311216 -0.56170267 -0.35012913 -0.14769308 -0.72880775 -0.9314002 -0.26415813 -0.4249195
-0.50115085 0.049701247 -0.20599371 -0.1506046 -0.07163396 -1.0791918 -0.1760192 -0.14460506
-0.27986613 -0.8573179 -0.25303715 -0.3878637 -0.53646284 -0.10758944 -0.7020871 -0.58491147
-0.12961148 0.093582444 -0.107730724 -0.05830825 0.08215854 -0.65426457 -0.6313493 -0.556275

fc.weight f4 [2, 32]
00000000: db55 003e 0173 f83e db7e 1dbd cef5 cd3d
00000010: 9298 1dbf 3d4d b9bf 7400 60bd 5173 d8bd
00000020: cc6a d0bf 04a7 db3d 4682 2bbd c7c4 62bc
00000030: 7665 6abd cf26 b33f 76f8 0bbd 9b32 c23d
00000040: 51de afbb b5e1 91bc 421d 323e 4f26 b73d
00000050: 041b 623d e5be 9f3d f06b 633d 2194 a83d
00000060: 04b2 f23d 9672 01be 45a1 99bd ef0c ce3d
00000070: 5e1c cfbd 8852 24c0 063a a83d 32c9 41be
00000080: 0862 dcbd d262 dbbe a670 87bd 4998 363d
00000090: 294d b63e 8e11 ae3f 78c4 5abd f57a 423c
000000a0: dab5 d23f c2fc e7bd 70a7 413e 8d74 8d3d
000000b0: 4934 7b3d c9f9 a4bf 2ede cfbd b144 9f3d
000000c0: e072 abbd face 88be 365b bf3d 0faa 5a3e
000000d0: d136 c9bd a2aa 6bbe 9c16 44be fa5b dfbb
000000e0: b8da 533d bbb8 f5bd 61ff 46bc c473 a13d
000000f0: f216 afbd ad64 1140 7d6d 45be 58f9 993c
0.12532751 0.4852524 -0.038451057 0.10056649 -0.6156093 -1.4476696 -0.054687932 -0.1056887
-1.6282592 0.10725215 -0.041872285 -0.013840861 -0.057225667 1.3996218 -0.034172498 0.094823085
-0.0053670784 -0.01780782 0.17393973 0.08942854 0.055201545 0.07800082 0.05552286 0.08231378
0.1185036 -0.12641367 -0.07501463 0.10061061 -0.101128325 -2.5675373 0.08214192 -0.18924406
-0.107608855 -0.4284883 -0.06613283 0.044578824 0.35605744 1.3599107 -0.053410023 0.011870136
1.6461747 -0.113275066 0.18911529 0.06906996 0.06132916 -1.2888728 -0.10149799 0.07776774
-0.0837152 -0.2672041 0.09343569 0.21353935 -0.098249085 -0.2301431 -0.1914925 -0.0068163844
0.05172226 -0.11998125 -0.012145848 0.07883409 -0.08549298 2.2717698 -0.19280048 0.018795654

fc.bias f4 [2]
00000000: f7bd 0cbe d760 1cbe
-0.13744341 -0.15271316
