data/usefullDatasets/lstm_classifier_dc3.pth (torch, 82032 bytes, 11 tensors)

embedding.weight f4 [89, 32]
000000 f7 ff 65 3f d3 1d cc bf e9 e7 dd 3e 61 84 81 3f
       0.89843696 -1.5946602 0.43340996 1.0118524
000010 e5 e5 1b bf 7a c3 2e bf 70 d9 ae 3e 20 e9 47 bf
       -0.60897666 -0.68267024 0.34150267 -0.78090096
000020 e2 a9 96 be 41 4e 0d c0 d0 7a 6b bf 13 84 7a bf
       -0.29426485 -2.2079012 -0.9198427 -0.9785778
000030 04 b0 0c bf 1c 7e 2a c0 fc b5 6c be c3 d6 6d 3f
       -0.5495608 -2.663947 -0.23116297 0.92905825
000040 57 56 c4 3e 65 c1 9a bf 6d a3 07 3f 1e 01 88 bf
       0.38347122 -1.2090269 0.5298374 -1.0625341
000050 6d 89 ad be 08 12 b1 3e 20 f9 74 3e 24 54 a1 3e
       -0.3389391 0.3458407 0.23923159 0.31509507
000060 fc 7a e3 3e f6 a4 c8 3f 4c ca c5 be da f5 cd 3f
       0.44429767 1.5675342 -0.38630903 1.6090653
000070 53 47 60 bf 7b 0d ee 3e 9e 94 46 bf 8c 28 c4 be
       -0.8760883 0.4649466 -0.7757052 -0.38312185
000080 73 a7 d3 bf 25 65 20 40 50 8c 5d be b9 ff 59 bd
       -1.6535476 2.5061734 -0.21635556 -0.05322239
000090 fb 46 c8 3e 23 4c 13 be f7 4b b1 be 46 ac e0 3f
       0.39116654 -0.14384513 -0.3462827 1.7552574
0000a0 5d 2a 0d 40 da 8b 76 3f d0 f1 2c 3e d4 bb a9 bd
       2.2057106 0.96307147 0.16889119 -0.082877785
0000b0 c6 0f c2 3b a3 49 98 be 63 3b 96 bf 7e dd be bf
       0.0059222905 -0.2974368 -1.1736873 -1.4911344
0000c0 2b 06 29 bf 33 b5 b8 be 8f dc a5 bf 8e fc 8d be
       -0.66025037 -0.36075744 -1.2957934 -0.27731746
0000d0 12 cf 92 3e 4b ed 8e be 75 7c 2d bf 52 7b a5 bf
       0.28673607 -0.27915415 -0.6776803 -1.2928259
0000e0 22 0b 09 bf b6 93 b1 3e 12 41 f8 be 13 40 ff be
       -0.5353261 0.34683007 -0.48487145 -0.49853572
0000f0 be b2 4e bf c2 09 a8 3f 63 50 a4 bd a4 88 79 be
       -0.8074149 1.3127978 -0.08023145 -0.2436853
000100 92 ff a4 3f af ea 8d 3f 02 84 6c 3f b1 5b 88 3f
       1.2890494 1.1087245 0.9238893 1.0652982
000110 c7 c9 f9 3e 91 9f ee be e6 04 d3 3e 5b 2a 43 bf
       0.48786756 -0.46606115 0.41214675 -0.76236504
000120 40 9c d0 be 76 8f 10 3f 00 e3 92 3f 4c 0b a5 bf
       -0.4074421 0.56468904 1.1475525 -1.2894073
000130 4d 85 a3 3f 52 2c a1 3f 32 3a 8a bf 3d 1e ce bc
       1.2775055 1.259165 -1.079901 -0.025160903
000140 50 77 76 bf c6 4a 79 bf cf dc b3 bf d4 23 8f 3f
       -0.96275806 -0.9737972 -1.405176 1.1182809
000150 6c ad 82 bf 78 03 8c 3e 51 ae 94 3f 33 a5 5d bf
       -1.0209174 0.27346396 1.1615697 -0.865802
000160 1b 9f 61 3e a4 6d d9 be 90 34 19 3f df e7 3f 3f
       0.2203335 -0.42466462 0.5984583 0.7496318
000170 48 9a 58 be 76 0a aa bf 34 56 f4 be 9c 6d 35 bf
       -0.21152604 -1.3284442 -0.47722018 -0.70870376
000180 58 7a fa bf 79 56 8d be ca 46 ed be f1 a2 1e bf
       -1.9568586 -0.27605036 -0.4634307 -0.6196738
000190 47 47 3a be 18 95 40 3e 17 92 5d bf 54 2c 1e 3e
       -0.18191253 0.18806875 -0.8655104 0.15446597
0001a0 fd 0a 4e bf d1 55 21 bf 6b ab 26 3f 6b 44 78 3f
       -0.80485517 -0.6302157 0.65105313 0.969794
0001b0 3b 4b e4 be a6 7d fd 3e df ec c5 be 55 91 f0 3d
       -0.44588646 0.49509925 -0.3865728 0.1174647
0001c0 16 b5 57 bf 78 5c d3 bf 7d 32 87 bf 84 4c c0 3c
       -0.8426069 -1.6512594 -1.0562283 0.023473985
0001d0 c1 d3 66 3f 2b eb 29 3f 71 4b 45 3e ae 1b 76 3e
       0.9016686 0.6637446 0.1926706 0.24033996
0001e0 01 a3 a8 bf c8 51 bd be 16 7b 0a bf 59 98 15 40
       -1.3174745 -0.36976457 -0.54094064 2.3374236
0001f0 66 31 73 be f5 84 37 3f 58 95 9c 3e bd 17 3b 3f
       -0.23749313 0.7168725 0.3058269 0.73083097
000200 ef 12 17 bf 4b 15 8b bd d6 59 c7 be 76 23 65 3e
       -0.59013265 -0.06791171 -0.38935727 0.22376809
000210 1b 3d 0a 3f 07 ff b0 bf 75 26 9f bd 4c 12 12 40
       0.5399949 -1.3827828 -0.07771007 2.2823668
000220 a6 86 4d 3f 58 9d 25 3f 26 c8 19 40 de d9 2b bf
       0.8028358 0.6469321 2.402841 -0.67129314
000230 d4 d1 ca bd 24 00 77 bf 3d 3e cd 3d bb 24 ef bd
       -0.09903303 -0.9648459 0.10021637 -0.11676928
000240 7c f8 3e 3f 51 47 48 bf 92 4b 24 bf 7b cc dc be
       0.7459791 -0.7823382 -0.6417781 -0.43124756
000250 80 f5 28 40 6a 22 3c be 8d be 5f be 19 36 b1 3e
       2.6399841 -0.18372503 -0.21850033 0.34611586
000260 e8 a3 57 3f dd f0 4d 3e 94 28 da 3d 85 45 9f bf
       0.84234476 0.20111413 0.10652271 -1.2443091
000270 20 47 b9 3f 61 c7 d3 3d 95 6f 1c 3f 6d 16 83 3f
       1.4474831 0.10340763 0.6110776 1.0241219
000280 a0 51 62 3f ca bf 6a bf a9 26 e1 bd f3 c0 0a 40
       0.884058 -0.91698897 -0.10993702 2.1680267
000290 7e 2d 02 bf be e9 5f bf 85 d6 71 bf 75 55 f6 3c
       -0.50850666 -0.8746604 -0.94467956 0.030070046
0002a0 ce 52 c6 3e 2a 45 42 3f 9c 2d e2 3e 4e 28 ba 3f
       0.3873505 0.75886786 0.44175422 1.454355
0002b0 2b 92 90 bf ab 0f 71 3f 93 a6 79 be 30 f7 82 3e
       -1.1294607 0.9416453 -0.2437995 0.25579214
0002c0 2a fe b8 3f 0e 1e 13 bc 7d dd 9f 3f 97 2b a5 be
       1.4452565 -0.008979334 1.2489468 -0.3225982
0002d0 97 d6 f3 3f e3 e3 39 bf 91 5e 77 3e 3b bc 7e be
       1.9049863 -0.7261335 0.24157168 -0.24876492
0002e0 c1 96 8f bf 63 4f b3 3e 2c 6a 88 3f 35 dc 2f 3f
       -1.1217881 0.35021505 1.0657401 0.68695384
0002f0 7c 09 80 3f 33 37 99 be db 8b 3d bf 8a f8 a5 3f
       1.0002894 -0.29924926 -0.7404153 1.2966473
000300 48 5a 96 3d 50 ff e1 3f ed 3e 19 bf 31 50 3f bf
       0.073414385 1.765604 -0.5986164 -0.7473174
000310 7b 68 81 3e 52 79 af be b5 ee 72 3f db 7d 04 3f
       0.25275025 -0.34272248 0.9489549 0.5175454
000320 f9 00 a0 be e7 23 0a 3f d9 bb e9 be 1f f4 a4 3f
       -0.31250742 0.5396103 -0.4565113 1.2887
000330 62 f9 a6 3e 83 24 a3 be 61 2f ef bd 9a fa 08 40
       0.3261214 -0.31863794 -0.11678959 2.1402955
000340 11 60 fb 3d 2a ba 1c c0 fc 6b 22 3f 14 08 26 3e
       0.122741826 -2.4488626 0.6344602 0.16214019
000350 f3 fa 14 c0 a7 ea d1 3f 3c 4b 1e 3f fa d9 86 bf
       -2.3278167 1.6399735 0.6183355 -1.0535271
000360 81 74 af 3f 95 33 88 3f 8d f3 9f be be 1b d8 be
       1.3707429 1.0640742 -0.31240502 -0.42208666
000370 82 1b b6 be 34 db e8 bd 73 14 cb 3d 10 95 89 be
       -0.35567862 -0.11369935 0.0991601 -0.26871538
000380 ad e4 ae 3e d0 e5 14 bf ab e2 e7 be 4c 8e 8d 3e
       0.3415884 -0.58163166 -0.4529012 0.27647626
000390 c8 96 ee be 02 06 d9 bf 64 8f 7b 3f 29 cc af 3e
       -0.46599412 -1.6954958 0.9826567 0.3433545
0003a0 d9 06 c3 be bc d1 bc 3e 2f e1 0b bf a3 1a 9f bf
       -0.38091162 0.36878765 -0.5464048 -1.2430004
0003b0 00 e3 8b 3e 2f 99 a6 3e fa c3 89 bf 2d 57 c8 3e
       0.27321625 0.32538745 -1.0762932 0.3912901
0003c0 8b 74 19 be dc 46 86 3e b9 f2 36 be 40 ff 17 3f
       -0.14985864 0.26225936 -0.17866029 0.59373856
0003d0 22 73 a0 bd 71 a5 f4 3f 19 ac a6 bf c8 25 01 3c
       -0.0783446 1.9112989 -1.302127 0.007882543
0003e0 10 23 ca be 08 0a 06 bf 8e 27 e5 3e db ba ef bd
       -0.39479876 -0.52359056 0.4475674 -0.11705562
0003f0 88 d0 5a bf 6f f4 69 3f 9a b7 9b be 1f 59 d3 bd
       -0.85474443 0.913886 -0.30413514 -0.10319733

lstm.weight_ih_l0 f4 [128, 32]
000000 06 a6 ad be 61 0d 01 bf 5a 8b 95 bd 23 ea 45 bf
       -0.33915728 -0.5041104 -0.0730197 -0.7731039
000010 31 f1 e8 3e 2d 5d ab 3f 33 a7 7b be ea c2 7f 3e
       0.45496514 1.338781 -0.245755 0.24976698
000020 d8 eb 7a be e8 50 12 bf 8a 60 1e be c1 25 88 3d
       -0.2450403 -0.57154703 -0.15466514 0.06647826
000030 4b ea 17 bf 89 c7 8a 3e 87 4b 02 3f 47 fd 93 3f
       -0.5934188 0.27105358 0.50896496 1.1561669
000040 2f 28 1d be 32 d4 91 be d0 9c 42 3f 5c 2d b5 bf
       -0.1534736 -0.28482205 0.76020527 -1.4154468
000050 96 34 03 bd b8 61 5c 3e 67 8e 05 bf 80 87 93 be
       -0.03203257 0.21521652 -0.52170414 -0.28814316
000060 31 c2 bd be 07 a2 55 bc 6b 9d 33 bf 53 ea e5 3d
       -0.3706222 -0.013039119 -0.70162076 0.112263344
000070 fe 42 a2 3f 4f 1f 89 3c 4e 51 02 3f 8b a4 ab 3f
       1.2676694 0.016738562 0.5090531 1.340959
000080 a7 a2 ed 3e 59 b1 6c be 19 d0 4b 3f 07 37 40 bf
       0.46413156 -0.23114528 0.79614407 -0.75083965
000090 73 63 54 3f c6 95 6c 3f d8 94 ac be 6f a5 86 3e
       0.8296425 0.92416036 -0.3370731 0.2629809
0000a0 32 cb 37 bf 66 81 4f bf 35 68 18 be 6b a6 0d 3d
       -0.71794426 -0.8105682 -0.14883502 0.034582537
0000b0 28 d6 df 3d 60 df 89 be 9b 1e b5 be 73 84 5c 3e
       0.10929519 -0.26928234 -0.35374913 0.215349
0000c0 08 09 a1 3e 0b 46 6b bf a9 78 ea be 6a 5c a8 3e
       0.31452203 -0.9190375 -0.4579518 0.32883006
0000d0 1d e6 5b be 5b 51 88 3f a9 de 1b 3e bd 6f 9a bf
       -0.214745 1.0649828 0.15221657 -1.206535
0000e0 6e 17 c0 3e de b4 01 3f 4d 2d 1f bf e4 56 1d bf
       0.37517875 0.50666606 -0.621785 -0.6146071
0000f0 cc 51 1a bf 52 45 ab 3e 00 4e ae bc bd a7 32 bf
       -0.6028106 0.33451325 -0.021277428 -0.697872
000100 ec 06 56 3e 9d 3e 0c be 07 11 67 3f b9 5d 91 3e
       0.20901078 -0.1369576 0.90260357 0.28391817
000110 41 9c b4 3e 17 c5 bb be 35 ff 88 be 60 42 98 3f
       0.35275462 -0.36673805 -0.26757208 1.1895256
000120 08 3c 2b be 8e 95 95 3f 1d 31 34 be c2 a2 46 3f
       -0.16722119 1.1686265 -0.1759686 0.775921
000130 20 bc 9e bf 51 40 18 bf 56 fb a2 3c 67 1b 21 3f
       -1.2401161 -0.5947314 0.019895237 0.6293244
000140 43 22 37 3f 11 56 92 be 2e 1e ff 3e 31 ee 5f 3e
       0.71536654 -0.28581288 0.49827713 0.21868207
000150 9c 3a 7f bd 29 7e 1b 3f 3d e2 0b be a4 58 30 3f
       -0.062311754 0.6073938 -0.13660522 0.68885255
000160 e7 35 94 be a7 fa b7 3e f2 38 6b 3d 7e ef 4e 3d
       -0.28947374 0.3593342 0.057427354 0.050521366
000170 bd ac 61 3f 1f e1 4c 3d 8f 18 11 3f d7 07 b7 be
       0.881542 0.05001938 0.566781 -0.3574817
000180 73 e3 73 3f 5a b3 d3 bf d3 35 bd 3e 15 34 03 bf
       0.95268935 -1.6539109 0.36955127 -0.51251346
000190 96 0f 26 bf e9 91 37 bd 12 50 50 bf 38 85 b1 bf
       -0.6486753 -0.044816885 -0.8137218 -1.386878
0001a0 48 08 66 3e 46 3d a6 bf 60 8f 8b bf 72 d1 2b bf
       0.22464097 -1.2987449 -1.090313 -0.67116463
0001b0 c5 ee 81 bf 1e 78 88 3e 48 1c aa 3f 31 90 df be
       -1.0150992 0.26654142 1.3289881 -0.43664697
0001c0 60 a8 9d 3e 3b 95 6a 3e c1 62 62 3e 30 a1 84 bf
       0.30792522 0.2290849 0.22107984 -1.036169
0001d0 f9 6e 7e bf 7a f1 bf 3b 66 f6 fc 3e 34 dc 4e 3d
       -0.9938808 0.0058576437 0.49406737 0.05050297
0001e0 bf 13 a8 be eb f8 a1 be 94 41 cb 3e e0 d6 54 be
       -0.32827565 -0.31635222 0.3969847 -0.20785093
0001f0 8f 3c 54 bf 9f 2e 3d bd bf f1 e1 be 2c f1 a1 3d
       -0.82904905 -0.04618704 -0.4412975 0.07907328
000200 50 3c c4 3d 5c e7 c8 3a 77 5a 2f 3f e5 0e 00 be
       0.09581816 0.001532774 0.68497413 -0.12505682
000210 58 4c b8 3d 2b c1 29 be 39 97 52 3e f6 1e 89 bf
       0.089989364 -0.16577594 0.205655 -1.0712574
000220 c9 48 a0 3f c9 1f b9 bf ca 6a 04 3f 5b 53 3b bd
       1.2522212 -1.4462825 0.5172545 -0.04573379
000230 a9 16 a5 3e 02 b7 4c 3f f7 5e 39 3d 08 7b a9 3e
       0.3224385 0.7996675 0.04525658 0.33101678
000240 12 25 de bb 64 45 e2 3e 68 c4 02 3f dc 75 1c bf
       -0.0067793215 0.44193566 0.5108094 -0.6111734
000250 9a d4 c1 be 8b da f8 be 4c 3e 0d be 04 f0 c4 bf
       -0.37857515 -0.48604235 -0.13793296 -1.5385747
000260 b0 e1 88 3e 2f 9e c6 be 31 b7 26 3e 6e d1 33 bf
       0.26734686 -0.3879256 0.1628082 -0.7024144
000270 06 9d 9c be ef 4c 06 3f 2f 44 b0 3d 1c 63 3b be
       -0.3058855 0.5246114 0.08606755 -0.18299526
000280 f3 67 b2 3e 0f e8 7e be 75 4f 06 bf ce d3 77 3f
       0.34844932 -0.24893211 -0.5246499 0.96807563
000290 24 6f 26 3e 41 64 1c bf 4e 3c 00 be 5a 4d 4d 3e
       0.16253334 -0.61090475 -0.12523004 0.20049039
0002a0 35 84 f5 bd fa b5 ea be f8 1b 81 3f b6 5c 01 3f
       -0.11988107 -0.45841962 1.008666 0.5053209
0002b0 f9 d9 17 3d ab 86 7b 3f 16 c9 f6 3e ed fa df be
       0.03707311 0.9825236 0.4820029 -0.4374613
0002c0 9c ae c3 be f0 f8 bf be 64 5b 81 bf 5c 6b 77 bf
       -0.38219154 -0.37494612 -1.0106015 -0.9664819
0002d0 39 49 65 3f f1 0a bb 3c bc 42 28 bf 20 71 2e bf
       0.89564854 0.022832366 -0.6572683 -0.68141365
0002e0 2d e7 84 3e 92 a0 8e be c1 18 a4 bc 94 d3 74 3f
       0.25957623 -0.2785688 -0.020031335 0.9563534
0002f0 5d ad 64 3e 79 d2 e2 be 22 e5 d2 be 84 a8 fe bd
       0.22331758 -0.44301203 -0.4119044 -0.124344856
000300 5c 31 c0 bd 51 4b 8e 3e 74 5c a3 3d 78 3c f7 be
       -0.093844146 0.27791837 0.079766184 -0.48288321
000310 8c ce 12 3f da 31 a2 3e 89 bc 10 bf b6 92 5d be
       0.57346416 0.3167866 -0.5653768 -0.21637997
000320 9a b5 2f bf a2 4b 50 bd 6a 15 7e 3e 93 df fa be
       -0.68636477 -0.05085338 0.24812856 -0.489987
000330 73 81 01 be 13 9e a4 3e 13 f4 05 3f 3b f9 cb 3f
       -0.12647037 0.3215185 0.5232555 1.5935434
000340 e3 f0 ef be a7 9d 71 be a8 94 fd be a5 02 a0 3e
       -0.4686347 -0.23595296 -0.49527478 0.31252018
000350 38 7f ed 3d 1b e9 3a 3e a1 d8 17 bf 5d 3b e2 3e
       0.11596531 0.18252985 -0.59314924 0.44185916
000360 7d 28 f7 3e 15 0f 69 bd 2b 3a 95 bd 4a 5b c2 be
       0.48273078 -0.05689915 -0.07286485 -0.37960273
000370 3a c7 82 3e ae df 8e be 11 11 92 bd 89 2b 1d 3f
       0.25542623 -0.2790503 -0.071321614 0.61394554
000380 95 37 4a 3f ee 50 0f 3d ad c9 3c 3f e1 cf ac 3e
       0.7899106 0.03498929 0.7374523 0.3375235
000390 99 6a 65 bf 3c 6e 29 3f dc e5 93 be 3d 4a 2c bc
       -0.8961578 0.6618383 -0.28886306 -0.010515747
0003a0 9a 51 be 3e 49 30 02 3f c5 06 a6 bd c6 55 fb be
       0.37171632 0.5085493 -0.0810676 -0.49088877
0003b0 f2 74 a1 3e 8f ed d3 3e 94 40 98 be d5 7d 59 3f
       0.31534535 0.4139218 -0.2973677 0.8495763
0003c0 e0 ca a7 3e b6 b7 12 bf bc 21 48 3f 99 f7 52 3f
       0.3277197 -0.5731157 0.78176475 0.82409054
0003d0 96 aa db be 87 bb ae 3e d8 05 fc be e0 5b d6 be
       -0.42903584 0.34127447 -0.49223208 -0.4186697
0003e0 0b d0 60 be 28 e1 85 3f ee ff 89 bc b7 c1 a3 bd
       -0.21954362 1.0459337 -0.01684567 -0.079959325
0003f0 96 5b b7 be 48 a8 5d bf ab 4a 6b be 77 ff 72 be
       -0.35812062 -0.865849 -0.22977702 -0.23730265

lstm.weight_hh_l0 f4 [128, 32]
000000 6e 9a f3 bd 04 9a 97 bf 08 ad 9f bf 59 e3 2f 3f
       -0.118946895 -1.1843877 -1.247468 0.6870628
000010 2d eb 68 3f ab 83 5e bf 63 98 b6 be f7 47 9e 3f
       0.9098385 -0.8691966 -0.35663137 1.2365712
000020 7a a5 04 bf 9a 11 89 3e 5e 69 71 bf 33 51 3d bf
       -0.51815 0.2677124 -0.943014 -0.73952025
000030 fc e5 73 bf 63 22 16 40 bb 59 86 bf 27 55 70 3e
       -0.95272803 2.3458488 -1.0496134 0.23469983
000040 4e b1 e5 bf 7a 32 11 bd e6 8e 36 bf b7 15 96 bf
       -1.7944734 -0.03544853 -0.71311796 -1.1725377
000050 7a fa 5a bf 5c 70 b3 be c1 92 0b 3f 87 86 3c 3f
       -0.85538447 -0.3504666 0.54520804 0.7364277
000060 50 0e 74 bf 49 5c 24 3f 02 c9 25 bc 33 96 df be
       -0.9533434 0.64203316 -0.010118725 -0.4366928
000070 44 3a 8c bf 75 8a f7 bf 4b cd 14 bf 77 63 11 be
       -1.0955281 -1.9339129 -0.5812575 -0.14198099
000080 93 c0 89 bf 20 2c 00 3f 3d ea b5 3f 54 54 94 bf
       -1.0761894 0.5006733 1.4212109 -1.1588235
000090 19 b8 48 3e 4c c3 79 be d5 99 df 3f a6 a5 a6 bf
       0.19601478 -0.24390906 1.7468821 -1.3019302
0000a0 59 7e 82 bf 7c dd 81 3e 8c 93 e7 3e 0e 16 96 be
       -1.0194808 0.25364292 0.45229757 -0.293137
0000b0 4f 74 a6 3e 5b bd f7 bf c8 83 62 bf 8b b9 44 3e
       0.3251061 -1.9354662 -0.8848233 0.19211404
0000c0 4c df a8 3e 9c ad 5c 3e be 8d 6d bf 63 07 73 3f
       0.32982862 0.21550602 -0.92794406 0.94933146
0000d0 aa 08 f0 3e 92 44 73 3f 97 67 e0 3f 15 f4 e0 3f
       0.4688161 0.95026505 1.7531613 1.7574488
0000e0 e6 02 b5 bf 25 5c eb 3e 12 4f fb bf a0 de ba 3c
       -1.414151 0.45968738 -1.9633505 0.022811234
0000f0 d3 88 ad 3e 74 8e 0a be 8a 9c 0c c0 0c a0 6d bf
       0.3389345 -0.13530904 -2.1970544 -0.9282234
000100 16 af b2 be 47 6a 62 3f cb b4 5e 3c 22 6e 8e 3f
       -0.34899205 0.88443416 0.013592909 1.112736
000110 1e 48 e3 bf 74 62 87 bf 19 7e c6 be 62 4a 58 3e
       -1.7756383 -1.057692 -0.3876808 0.21122125
000120 47 b6 41 be 27 b2 d8 3d 4a f7 ae bf 16 16 a5 3e
       -0.1891719 0.10580855 -1.3669217 0.32243413
000130 f2 cc 91 bf ae ac 6e 3f 4d 78 e6 be 9e 06 25 3f
       -1.1390669 0.9323224 -0.45013657 0.6446322
000140 a9 50 da bf ba 0c f2 be 07 51 d1 be 72 89 e7 3e
       -1.7055866 -0.47275335 -0.4088213 0.4522205
000150 6b a1 1a 3e 89 f1 a5 3f c9 f5 37 40 5e 21 30 3b
       0.15100639 1.2964336 2.8743765 0.0026875357
000160 d3 14 00 3f 48 50 29 be 68 ea c3 bf 8b 7c 60 bf
       0.50031775 -0.16534531 -1.530591 -0.8769004
000170 4e ac 1e bf 33 2f d2 3e e2 91 21 bf 1c 9e b5 3e
       -0.61981666 0.41051635 -0.63113225 0.3547219
000180 ca 2d 95 bf 9e 8d 4d 3f 91 25 1d 3f 3d 66 bc 3e
       -1.1654599 0.80294216 0.61385447 0.36796752
000190 c0 97 6b be 10 cc 0a c0 d9 f5 69 bf 54 37 bc 3e
       -0.23007107 -2.168705 -0.9139076 0.36760962
0001a0 cd 29 95 bf b9 04 c4 be 73 c5 06 bf 4a 7e 3a bf
       -1.1653382 -0.38284853 -0.52645034 -0.7284895
0001b0 46 b2 35 3f 9d 1b d3 3d b8 90 05 3f 73 71 70 3f
       0.7097515 0.10308001 0.5217395 0.9392311
0001c0 9f 13 02 3f 83 23 e6 bd b8 ce 33 be 22 b5 cc be
       0.5081119 -0.11237242 -0.17559326 -0.39981943
0001d0 15 41 d5 bf 0b c9 83 bf be ee fd 3f c8 d9 42 3f
       -1.6660486 -1.0295728 1.9838483 0.7611356
0001e0 f0 57 b8 bf ab 44 ad bf 33 3d 3c bf 9f a4 1a 3e
       -1.4401836 -1.3536581 -0.7353088 0.1510186
0001f0 dc a2 53 bf f1 09 5e be 84 5f ac bf 74 9f 84 bf
       -0.8267038 -0.2168348 -1.3466649 -1.0361161
000200 ff c8 87 bd fd 2d 8f be b0 69 dd bd 18 f6 31 bd
       -0.06630134 -0.27964774 -0.10811174 -0.043447584
000210 2c b1 9a be 4e ef 6c bf ff 79 03 c0 3c c8 84 3d
       -0.30213296 -0.9255265 -2.054321 0.06483504
000220 43 22 56 3f 4f a8 af bf 0d 87 15 bd ae 06 7d bf
       0.8364603 -1.3723239 -0.036505748 -0.9883832
000230 35 1e 07 3f d8 71 c6 3f 84 a9 ca be 41 ae 86 3f
       0.5278047 1.5503492 -0.39582455 1.0521928
000240 18 f4 ef bf b0 2c 81 bf d4 b1 d8 be 0a 6c 9e be
       -1.8746367 -1.0091763 -0.42323172 -0.30941802
000250 a6 53 96 3f 7f f6 1e 3d 3c 92 6a 3f 5b aa 0b c0
       1.1744277 0.038809296 0.91629386 -2.1822727
000260 03 56 78 3f 83 d5 2f bf d6 00 a6 be 38 ca ee bb
       0.97006243 -0.6868517 -0.32422513 -0.00728729
000270 15 1e 33 bf ac 8e 99 3f 41 64 da 3e 45 d0 2b bf
       -0.69967777 1.1996665 0.42654613 -0.6711467
000280 e2 ea 3a bf af e8 13 3f bc 23 36 bf 8b 04 61 3e
       -0.7301465 0.5777692 -0.71148276 0.2197439
000290 bc a0 0e be 63 b8 64 bf b0 d0 41 bd 51 76 7a be
       -0.13928503 -0.8934385 -0.04731816 -0.24459197
0002a0 ea ba 07 3f de e2 08 40 fe 37 80 bd f2 7e 45 3e
       0.53019583 2.1388469 -0.0626068 0.19286707
0002b0 3c 86 89 bf 4b 32 17 bf c0 49 8a 3e f4 c5 81 be
       -1.074409 -0.59061116 0.27009392 -0.2534634
0002c0 d0 4a dd bd c1 33 68 3d 59 9c 07 c0 e3 d1 eb 3e
       -0.10805285 0.05668998 -2.1189177 0.46058568
0002d0 80 20 d6 be 6a e8 91 be 4a 33 56 3f f0 6f ab 3f
       -0.4182167 -0.2849763 0.8367201 1.3393536
0002e0 39 85 c1 be 72 8d ee 3e 00 4c c6 bf 6f 99 67 3f
       -0.37796953 0.4659229 -1.5491943 0.90468496
0002f0 66 12 c0 be 86 28 c7 bf 65 3d b2 be 19 87 e0 3e
       -0.37514037 -1.5559242 -0.34812465 0.4385307
000300 12 d3 bc be 47 3f 9c 3f e5 bd 03 c0 3d 4d 5c 3e
       -0.36879784 1.2206811 -2.0584652 0.21513839
000310 64 af 30 3f 77 15 e1 be d4 f9 b6 3e 82 89 46 3e
       0.69017625 -0.4396169 0.3573748 0.19388393
000320 e5 c1 ab 3f 55 54 8d bf 8d a3 6a 3f 73 2a 16 3f
       1.3418547 -1.1041361 0.9165581 0.5865852
000330 d3 c2 6d be f2 4d 78 3e da f0 24 3f 98 16 e9 3e
       -0.23218851 0.24248484 0.6443001 0.4552505
000340 8d 16 0c 3f 89 31 a4 3f 9d 9f 76 3f bc 7a 69 3f
       0.5472191 1.2827617 0.963373 0.912029
000350 55 35 c4 be 18 f5 02 bf e7 ab 22 bf 57 9b 1d bf
       -0.3832194 -0.51155233 -0.6354355 -0.61565155
000360 f4 9d c6 3f 5b 18 bf 3e 69 83 d2 3f 8f 32 3b 3f
       1.5516953 0.3732327 1.6446353 0.7312402
000370 60 fa 7e bf 2c e0 4f 3f 86 e8 b0 3e 4d b7 44 bf
       -0.9960079 0.81201434 0.345524 -0.76842195
000380 e2 66 13 bf 2d 07 5b 3f 6d 3b 9c bf fd 00 0d bf
       -0.5757886 0.85557824 -1.2205635 -0.55079633
000390 68 97 98 bd 04 29 46 3f e9 cf 3b bf e5 f1 52 bd
       -0.074507535 0.77406335 -0.7336412 -0.05150022
0003a0 dd 94 ea 3e e1 23 43 bf 92 9f 47 3f 2a 35 ca 3d
       0.458167 -0.7622662 0.7797786 0.098734215
0003b0 47 87 33 bf a4 be 80 3e de d3 31 bf 28 c0 37 3f
       -0.7012829 0.25145447 -0.6946391 0.7177758
0003c0 56 31 1f 3f 65 c9 da be 4a fa 8a 3f c7 c9 0c bf
       0.62184656 -0.42731777 1.0857632 -0.5499539
0003d0 52 ec 45 3f 07 30 80 3e 62 68 d4 3e 07 4a ca 3d
       0.7731372 0.25036642 0.41485888 0.09877401
0003e0 21 a8 28 bf c4 b4 97 bf 4b cb b7 bf 9c b6 8c 3f
       -0.65881544 -1.185204 -1.4358915 1.0993228
0003f0 a1 bc cd 3f 17 4c a7 3e 3c e7 9d bf a8 87 a9 3e
       1.607319 0.3267524 -1.2336192 0.3311131

lstm.bias_ih_l0 f4 [128]
000000 84 1b 0a bf 41 a8 4a be 31 a9 92 3d 38 b1 80 3e
       -0.53948236 -0.19790746 0.07161177 0.25135207
000010 6c 77 0a be 6a 0e f3 3d 54 15 18 3f 9f 92 6f 3e
       -0.13522118 0.11867984 0.59407544 0.23395775
000020 8b 02 43 3d 12 20 56 be 91 7d 2e 3e 3d aa 86 bf
       0.047609847 -0.20910671 0.17040087 -1.0520703
000030 45 6e 43 be ff 63 07 bf e9 8a 7f 3f 1e 87 cf be
       -0.19085033 -0.52886957 0.99821335 -0.40532774
000040 9c c6 1d bf 48 17 dc 3d eb 11 70 be 93 85 07 bf
       -0.6163118 0.10746628 -0.23444335 -0.52938193
000050 24 a9 3e 3e 6f c5 44 be d4 09 7b 3e 2c 0f 24 3d
       0.1861921 -0.1921594 0.24515468 0.04005353
000060 75 0a ed 3e 51 99 e3 3d 4f ca b6 be 8b 41 92 3e
       0.4629704 0.11113227 -0.35701224 0.2856563
000070 27 a3 c5 3d 88 f2 b6 be b2 8a e4 be 94 1b e8 be
       0.096502595 -0.35731912 -0.44637066 -0.4533354
000080 a4 53 bb 3e d1 29 8c 3d f6 43 19 3f 12 9f 21 bf
       0.3658725 0.06843913 0.59869325 -0.6313335
000090 8a 4c ff 3e 5b fb d7 3e dc 05 6f 3c ff bf 81 3c
       0.49863082 0.42183957 0.014588799 0.015838621
0000a0 a2 d7 0e 3f 13 cb 82 3e b7 56 76 bd ca 6d 87 3f
       0.5579778 0.25545558 -0.06014129 1.058038
0000b0 b1 00 6a 3e d4 06 7d bd 53 a7 50 3f 8b 2e a7 3c
       0.22851826 -0.06177409 0.81505316 0.020407936
0000c0 53 90 61 3f bc 7e 3f 3e 94 51 f2 3e e0 42 32 3f
       0.88110846 0.18700689 0.47327864 0.69633293
0000d0 1c b7 84 3e d0 45 4e 3f 03 e2 f7 3d 7a b1 42 3e
       0.2592095 0.80575275 0.12103655 0.19013014
0000e0 00 5d 14 3f 0c 18 cd 3e 51 a3 de bd 19 42 01 3e
       0.57954407 0.4005741 -0.10870994 0.1262287
0000f0 aa 25 b8 3d 0d 06 c2 3e 41 2e 12 3f d2 f6 15 3f
       0.08991559 0.3789524 0.5710183 0.5857974
000100 a0 f0 0f bf 4f d4 93 3e 6b 88 3c be 64 c8 8b bc
       -0.5622654 0.28872916 -0.18411414 -0.017063327
000110 ff c2 93 bd 9c 41 f3 be b5 1b 8b 3d a1 d6 01 bf
       -0.07214927 -0.47510993 0.06792394 -0.5071812
000120 5c 3d a3 3e 1d 8e be be 9a 2e 90 bd 09 b6 67 3e
       0.3188275 -0.372178 -0.070401385 0.22628035
000130 3e 3a 45 3f 66 f5 6a be f4 b2 49 be 81 82 23 be
       0.77041996 -0.22945175 -0.19697171 -0.15967752
000140 d4 7b a2 3e b2 2d 54 3e 72 31 82 3e fa 2b d7 3e
       0.31735098 0.20720556 0.2542835 0.4202574
000150 41 8d 90 bd 03 ae ca bd 55 75 f9 3e 00 76 2c 3e
       -0.07058192 -0.09896471 0.4872233 0.16841888
000160 93 30 e0 bd ef 62 dc be 0f 66 44 be 25 83 6b be
       -0.10946765 -0.4304423 -0.19179557 -0.22999246
000170 f9 e6 da be 71 70 e8 3c cf bc 81 be 41 0b b4 be
       -0.42754343 0.028373929 -0.25339362 -0.35164836
000180 50 66 bd 3d 1d 95 5d 3e 21 fa 3c bd 5a 22 1d 3f
       0.0924803 0.21638913 -0.04613698 0.6138054
000190 7c 3e 6b 3f 37 a5 22 3f aa bb bf bc ef 3d cb 3e
       0.9189222 0.6353335 -0.023404915 0.3969569
0001a0 b9 fb 05 3e a3 e9 47 bd 89 f5 c1 3d 1d 05 47 3f
       0.13084306 -0.048806798 0.0947066 0.7774218
0001b0 e7 2b 45 3f 56 03 ca 3e eb 1a c7 3e 3e 17 b2 bd
       0.77020115 0.3945567 0.38887724 -0.08695839
0001c0 3f a5 83 3c 2e 4c 02 be c3 62 e1 3e 73 9a 61 3f
       0.016070006 -0.12724373 0.44020662 0.88126296
0001d0 ce 35 0d 3f 4a fc 4e 3f 5d eb 2f 3f 4f 07 4f 3c
       0.55160224 0.8085371 0.6871851 0.01263602
0001e0 52 89 34 3f b6 df 1b 3f 59 42 86 3e 65 a9 b4 3e
       0.70522034 0.6088823 0.26222494 0.35285488
0001f0 c9 cc e3 3e ed 11 dd 3e b7 d9 90 bd a9 5d d8 3e
       0.44492176 0.4317774 -0.07072776 0.42258957

lstm.bias_hh_l0 f4 [128]
000000 e1 21 28 bf 9d fd f9 3d d0 d1 00 bd 57 42 10 3f
       -0.65676695 0.12206576 -0.031450093 0.56351227
000010 20 0c 49 be 39 75 8b 3e 30 df 23 3f 7b b1 5f 3c
       -0.19633532 0.2723787 0.6401243 0.0136531545
000020 74 06 9f 3e fd f0 ae bd f4 88 17 3e 2d aa 5e bf
       0.3105961 -0.085420586 0.14798337 -0.8697842
000030 3a 74 67 be af c1 0b bf c6 22 8e 3f 64 7a f8 be
       -0.2260293 -0.5459241 1.1104362 -0.48530877
000040 64 e8 da be b5 5d af 3e 8a ea f7 be 50 e9 ff be
       -0.42755425 0.3425118 -0.48421127 -0.4998269
000050 55 a9 50 3e 9c 36 c3 3d 89 99 de 3d c1 eb 9e 3e
       0.20377095 0.095319 0.10869128 0.3103924
000060 df 45 c4 3e 43 fe 40 3d 51 14 b9 be f9 e4 8f 3e
       0.38334557 0.047117483 -0.36148313 0.2810438
000070 b4 7b c9 3c 00 70 61 be 5b 56 c4 be d0 d9 17 bf
       0.024595119 -0.22015381 -0.38347134 -0.5931673
000080 41 5f 9a 3e 83 28 2c bd 6c 3b ab 3e 16 da d4 be
       0.30150798 -0.042030822 0.33443773 -0.41572636
000090 ba 5a 97 3e f8 7d 7e 3e 73 bc 0a 3c 45 8c 5a 3d
       0.29561406 0.24852741 0.008467781 0.053356428
0000a0 12 20 3b 3f 6e f7 b5 3e eb ea 9d bc e8 b2 80 3f
       0.7309581 0.35540336 -0.019277057 1.0054598
0000b0 f8 02 c6 3e 16 66 19 bc 2a ff 0f 3f 14 b0 94 bd
       0.3867414 -0.009362718 0.56248724 -0.07260147
0000c0 d6 be 90 3f ee f4 ee 3d 26 c0 50 3e cb b1 23 3f
       1.1308239 0.116678104 0.20385799 0.63943166
0000d0 2e 99 f3 3e d8 dc 2f 3f 63 70 6d 3e e3 7e 1a 3d
       0.47577804 0.68696356 0.23187403 0.037718665
0000e0 88 83 1b 3f a4 21 cd 3e 57 43 8a 3d df 52 f3 3d
       0.60747576 0.40064728 0.06751125 0.11881041
0000f0 08 58 0a 3d fb e5 17 3e 54 1f 0c 3f 06 ac cb 3e
       0.03377536 0.14833824 0.547353 0.3977968
000100 8b b0 1d bf 71 7e 82 3e 50 45 b7 bd 9d ba a4 bd
       -0.6159751 0.25487092 -0.08948767 -0.08043406
000110 e1 cf d3 3c 9d ef c4 be 20 4b 0e be b1 9b f0 be
       0.02585596 -0.3846406 -0.13895845 -0.46993783
000120 4c 4f db 3d 58 81 1f be d3 32 bb bd 18 1d 9e bb
       0.10708484 -0.15576684 -0.09140553 -0.0048252456
000130 b3 c3 fd 3e 8e 76 40 be b6 11 10 3d af 06 b6 be
       0.4956337 -0.18795225 0.03517314 -0.35551974
000140 82 f4 0e 3c 6a c1 a0 bd 85 3b 65 3e 76 d1 ca 3e
       0.008725287 -0.07849391 0.22385986 0.3961293
000150 92 e9 59 3d 7c aa 09 be 25 d8 c1 3e 13 11 3e 3e
       0.053201266 -0.13443941 0.37860218 0.18561201
000160 66 5e 52 be 0d 3f 00 bf dc c9 76 be e7 72 8d be
       -0.20543823 -0.5009621 -0.2410044 -0.27626726
000170 28 0a a9 be 06 8a ea 3d bd 20 4d bd 01 28 fc bd
       -0.3301556 0.11452107 -0.05008005 -0.12312318
000180 13 7f 70 3e 31 c9 17 3e 27 dc 83 be c2 43 fc 3e
       0.23485975 0.14822842 -0.257539 0.49270445
000190 41 3a 6c 3f 76 53 70 3f 96 47 6a 3d a1 cd 06 3f
       0.9227639 0.9387735 0.057197176 0.52657515
0001a0 55 c3 1d 3e 99 2d 77 3e 5d 63 be 3e a6 20 3c 3f
       0.15406545 0.24138488 0.37185183 0.7348732
0001b0 bd 06 61 3f f5 6b b5 3e 68 c6 0d 3f 42 f2 35 be
       0.87900907 0.35433927 0.5538087 -0.17768195
0001c0 d6 f4 46 3d 62 c3 64 bd 0a cc 12 3f cd 80 7b 3f
       0.048573337 -0.055850394 0.5734259 0.9824341
0001d0 b6 82 4c 3f d1 81 59 3f 6f 74 4c 3f b5 f5 46 bd
       0.7988695 0.8496371 0.79865164 -0.04857417
0001e0 a0 6d 27 3f ea 02 2d 3f a4 85 6a 3e 5a 97 02 3f
       0.6540165 0.6758257 0.22902542 0.51012194
0001f0 c5 91 cf 3e b0 6e 1b 3f ee f6 8c be 91 30 8a 3e
       0.405409 0.6071577 -0.27532142 0.26990178

lstm.weight_ih_l1 f4 [128, 32]
000000 63 5b c1 bd c4 f0 5e 3f 04 20 87 3d 61 3e 68 be
       -0.09441259 0.8708613 0.06597903 -0.22680046
000010 71 a3 9a 3e bc cc 15 3e f2 ff 2d bf 91 0d 0b 3f
       0.3020282 0.14628881 -0.67968667 0.54317576
000020 d5 af 0e bf ad a8 0e 3e b3 9d 93 3e 4d 45 4d be
       -0.5573705 0.13931532 0.28831252 -0.20045967
000030 4b 63 3b be 94 1e fe 3e af 32 0c 3e 2d 4c d0 3e
       -0.18299596 0.49632704 0.1369121 0.40683118
000040 ed c6 6a 3e 05 57 92 3e 0f e9 48 bc 56 9e 84 3e
       0.22927447 0.28582016 -0.012262597 0.2590205
000050 43 6c 89 be 4b 82 aa 3e 26 38 d0 3d 8c 67 72 bd
       -0.2684041 0.3330253 0.101669595 -0.05918078
000060 fd cc 1a bf 31 3b 50 be c2 60 aa bd 4c 99 9a 3e
       -0.6046904 -0.2033508 -0.08319236 0.3019508
000070 8f 97 29 3c ad 18 30 bf 69 95 58 bf 24 06 96 bc
       0.010351076 -0.6878765 -0.8460298 -0.018313475
000080 59 3b 0e be 4a e0 8e 3e 61 9a 96 3c 9e 82 2e be
       -0.13889827 0.27905494 0.01838416 -0.17042014
000090 6c 20 86 be 1b 51 39 3f 18 d3 7b bd f3 1e 18 bf
       -0.2619661 0.7238938 -0.06148061 -0.59422225
0000a0 53 e4 80 be a5 d3 1a bf df 31 0c bf c0 e5 18 bf
       -0.25174198 -0.60479194 -0.547636 -0.5972557
0000b0 a0 59 1d 3f 1e 43 22 bd 31 b8 ac 3e 42 25 e7 3e
       0.6146488 -0.03961479 0.33734277 0.45145613
0000c0 0e 17 c8 3e 9d 67 b4 3e a1 1d d8 be 63 57 1d 3e
       0.3908009 0.352353 -0.42210105 0.15365367
0000d0 16 cc ab 3d ff 37 1f bc b9 6b 77 be 13 65 f8 bc
       0.08388536 -0.00971794 -0.24162187 -0.030321633
0000e0 62 e7 ed be c6 31 63 be c0 76 57 bc fe fb f7 3d
       -0.46465594 -0.22186956 -0.013150871 0.121086106
0000f0 66 9e c8 bd 24 7f 14 bf c2 7d bc 3d 84 ff 33 be
       -0.09795837 -0.580065 0.09203674 -0.1757794
000100 e0 c3 93 3f c8 df 97 bd 1e 85 6d 3e 41 11 80 be
       1.1544151 -0.0741573 0.23195311 -0.25013164
000110 d6 06 1c 3e b9 f3 b4 3e 80 49 35 3f 9f b3 e1 3d
       0.15236983 0.35342196 0.7081528 0.11020588
000120 8c 37 44 bc dc 89 74 bd 9f 77 01 be 77 8a a2 3e
       -0.011976134 -0.059701785 -0.12643288 0.31746265
000130 88 fd cc bd a7 de 85 bd 2a 09 e3 3e c3 0e 39 be
       -0.10009295 -0.06536608 0.4434293 -0.18072037
000140 72 71 7b 3e 9b 9b 83 be 0f 35 f8 bd 1d 04 76 bf
       0.24554995 -0.25704655 -0.12119495 -0.96100026
000150 f2 cf 11 3f 2f ce a4 bc e8 f4 98 3d 9a 0f 74 bc
       0.56957924 -0.020117847 0.07468587 -0.014896298
000160 93 2f 2e 3e 59 b2 57 bd eb 46 a5 3e a7 71 2a 3d
       0.17010336 -0.05266032 0.3228067 0.041612294
000170 38 d3 74 be 21 e0 b7 3e 14 9b c2 be 31 37 04 3f
       -0.23908699 0.35913184 -0.3800894 0.51646715
000180 ad 13 c4 be 76 5f a5 3d 84 52 52 3e 7a 16 d0 3e
       -0.3829626 0.08074848 0.2053929 0.40642148
000190 70 5d 6b 3f 05 51 a4 3e a3 08 89 bc 2a 83 80 3e
       0.9193945 0.32093063 -0.016727751 0.2510007
0001a0 2f 42 19 bf 71 84 1e bf 48 03 b9 3e 49 76 2d bd
       -0.59866613 -0.6192084 0.36135316 -0.042349134
0001b0 88 8d b9 be b6 9e b6 3d 02 c1 02 3f ae 22 f1 be
       -0.36240792 0.089169905 0.51075757 -0.4709677
0001c0 60 5d b1 3e 93 13 fa be 93 e1 22 3e 63 01 e9 be
       0.34641552 -0.4884306 0.15906362 -0.4550887
0001d0 8f 74 35 3e 5f c7 6d bb ee 09 ed 3d 41 05 61 3d
       0.17720245 -0.0036282165 0.115741596 0.05493665
0001e0 ce e0 bd 3e 86 cb c3 bd 62 2a 08 3d c8 82 38 3f
       0.37085575 -0.095603034 0.033243544 0.72074556
0001f0 87 d9 bb be 97 6b 32 3f e7 a9 a4 bd d2 60 d8 be
       -0.36689398 0.6969542 -0.08040219 -0.42261368
000200 be 52 e9 bd d8 79 a9 3f 3f b6 5f 3d 1b 61 af bd
       -0.11392735 1.3240309 0.054617163 -0.08563443
000210 24 f4 dd 3e 76 05 25 3e ee 5d cd be 3e 7d c8 be
       0.43350327 0.16115364 -0.40110725 -0.39158052
000220 f8 71 64 bd 3f e6 50 3f 33 a4 12 3f f3 4d a5 be
       -0.05577275 0.8160133 0.572818 -0.32286033
000230 a9 3e b9 3e 53 1a a2 bb ac 3d bb bd 24 bd 72 bf
       0.36180618 -0.0049469857 -0.09142622 -0.94819856
000240 9d ce 04 3f 39 a3 1f 3f 0d e6 15 bf cd e9 1f 3f
       0.51877767 0.62358433 -0.58554155 0.62466127
000250 27 d3 85 bf f7 56 ec be 4f af dd be db 86 a3 3e
       -1.0455064 -0.461601 -0.43297812 0.31938824
000260 48 57 6c bc 93 63 82 3f b4 bb 9d bd d7 85 b3 be
       -0.014425106 1.0186638 -0.07701817 -0.3506305
000270 cf aa c2 3e 33 90 a2 3e d8 43 6a 3c 96 a1 21 3e
       0.38020942 0.3175064 0.014298402 0.15784296
000280 6d 60 e2 bd 1b 61 6c bf a4 60 37 3e 18 d0 e6 be
       -0.11053548 -0.9233567 0.17907959 -0.45080638
000290 65 36 03 be d2 42 80 bc de 1c a4 bd c1 1e 9f be
       -0.12813719 -0.015656862 -0.080133185 -0.3107815
0002a0 61 d2 82 be ea eb 91 3e 0b b6 02 bf 97 7d 86 bd
       -0.2555113 0.285003 -0.51059026 -0.06566923
0002b0 64 df 50 bf 74 cd ae be 5f 18 11 3f 32 38 a6 3e
       -0.8159087 -0.34141123 0.5667781 0.3246475
0002c0 a6 48 a9 3f 7b fc 94 3e 25 66 cf be 9b ce 78 bf
       1.3225296 0.29098877 -0.40507618 -0.97190255
0002d0 8d fb 61 3e 25 5a 87 bc 31 06 82 be 3d 5f bf 3d
       0.22068615 -0.016522476 -0.2539535 0.09344337
0002e0 f9 70 b1 be 58 1f d5 3e 52 bd cd 3e 83 28 1a bc
       -0.34656504 0.41625476 0.40183502 -0.009409073
0002f0 30 6c a5 3e c4 41 9c 3e d4 15 11 be 61 7c e2 be
       0.32309103 0.30518925 -0.14168483 -0.4423552
000300 11 0d b6 be c2 34 80 3f 4a af ec 3e c0 bf 2b 3e
       -0.35556844 1.00161 0.46227485 0.16772366
000310 f0 38 80 3e 0e ba 5b be 46 99 0f 3f d9 1d f4 3d
       0.2504344 -0.21457693 0.5609325 0.119197555
000320 ee ee a9 bd e3 fb bf 3c 24 72 b3 3e 9b 7a 80 be
       -0.08297525 0.023435539 0.3504802 -0.2509354
000330 81 c1 04 3f ea 48 f1 3d b5 a7 6e 3e 86 79 01 bf
       0.51857764 0.117814854 0.23306163 -0.50576055
000340 57 d2 06 be 8a 22 f2 3e cb 74 fc 3c cc bb c2 be
       -0.13166176 0.47291976 0.03081741 -0.38033903
000350 d4 6d 53 bf 8e 0a d7 b8 ae ca b0 3d 78 cb 37 be
       -0.8258946 -0.00010253965 0.08632408 -0.17948711
000360 b1 3c e8 be dc 21 dc 3c 84 5e 3a 3e 00 78 a7 3d
       -0.45358804 0.026871614 0.18200117 0.08177185
000370 f5 7b ae 3e e6 0f aa be 66 1f cf 3e c0 f0 02 3f
       0.34078947 -0.33215255 0.40453643 0.51148605
000380 01 ae 0a 3e bb f3 b4 3e 1b 98 d2 3e 84 51 b5 bd
       0.1354294 0.35342202 0.41131672 -0.088534385
000390 32 07 82 be d4 ec b8 3e f9 a6 a8 3e 3b 14 06 bf
       -0.25396115 0.36118186 0.3293989 -0.5237462
0003a0 e2 54 9f 3e 2d 95 5f be 70 8f 22 3d b5 08 b4 be
       0.31119448 -0.2183425 0.039687574 -0.35162893
0003b0 b3 bf e6 3d 61 52 67 bb 49 52 d6 3d 39 1f 13 3f
       0.112670325 -0.0035296904 0.104649134 0.57469517
0003c0 4d c7 8f 3c de 64 33 be 27 e5 bf bd f3 a1 1a be
       0.017551089 -0.17518947 -0.09369879 -0.15100841
0003d0 e7 41 02 3f 3d 60 bb be 82 64 ed bd 3a 87 12 be
       0.5088181 -0.3659686 -0.11591436 -0.14309397
0003e0 0e 91 2b 3e f5 1c 7c 3e 9d 6d d0 3d 70 87 0c be
       0.16754553 0.24620421 0.10177157 -0.1372354
0003f0 f8 ea 7a 3e 7e 4a 90 3e 67 0d 2d be e9 f6 12 3f
       0.24503696 0.28181833 -0.16899644 0.57408005

lstm.weight_hh_l1 f4 [128, 32]
000000 fd 36 95 be 0d 01 d7 3e a0 d7 b8 3e 0f de 04 3f
       -0.29143515 0.4199299 0.3610201 0.51901335
000010 41 7c 80 3f 83 1f d8 bd c9 55 07 be d6 a5 8d be
       1.0037919 -0.105528854 -0.13216318 -0.27665585
000020 d6 d9 61 bf 9f d8 d0 3d 04 4f fd 3e 25 94 65 bf
       -0.88223016 0.10197567 0.49474347 -0.89679176
000030 87 6f 3a 3e 3e e5 a5 3f 7d 32 cc be 27 76 65 3e
       0.18206607 1.2960584 -0.3988227 0.22408353
000040 0d a5 06 bf de f1 af bc 2d 65 aa 3f d8 09 86 3f
       -0.525956 -0.021477636 1.3312126 1.0471754
000050 b8 5b 98 3e 8d b7 25 3f 7d c1 83 bf 45 f5 5b 3f
       0.29757476 0.647332 -1.0293423 0.85921127
000060 33 91 2c 3f b0 90 18 3f 98 6c 78 3f 14 87 ad 3e
       0.67409056 0.59595776 0.970407 0.3389212
000070 a5 a7 d4 be e4 5d 32 bf cf 59 3b 3f 05 fb ba 3d
       -0.41534153 -0.69674516 0.7318391 0.091299094
000080 37 ae 3f 3f b2 56 3a bd ef 8c b2 3d 92 5e 23 3f
       0.74875206 -0.045492835 0.08718287 0.6381618
000090 f3 fd 2b 3f de f7 48 c0 ca 57 89 bf c2 c6 6c 3e
       0.6718437 -3.1401286 -1.0729916 0.23122695
0000a0 71 fe b6 3e 57 24 24 3f 8d 83 30 be f3 b7 97 bf
       0.35740998 0.6411795 -0.17237683 -1.1853012
0000b0 42 e3 5f be 68 71 ba be 80 6f 47 3f 32 4e e7 3d
       -0.21864036 -0.36414647 0.7790451 0.112942114
0000c0 3e fe 20 3f 7d 22 24 bf 2c cc be be d8 3d 8c be
       0.6288794 -0.64115125 -0.37265146 -0.27390933
0000d0 52 6a 92 be 1d 28 32 3f 74 1b d6 be 89 c9 80 3f
       -0.2859674 0.6959246 -0.4181782 1.0061504
0000e0 bb af 29 bf 12 48 ba be 67 4d ec be 56 0f c5 3e
       -0.6628377 -0.3638311 -0.46152803 0.38488263
0000f0 42 61 57 be 29 95 50 be 10 2a d2 3f 62 f0 24 3f
       -0.21033195 -0.203694 1.6419086 0.64429295
000100 eb 0f 12 3f d3 d1 69 3a 43 de 19 3f e0 11 4d be
       0.5705554 0.0008919511 0.6010477 -0.2002635
000110 70 08 50 bf 18 89 da 3f 5d b8 6f bf 73 e4 96 3c
       -0.81262875 1.7073088 -0.9364069 0.01841948
000120 88 c2 62 3f db 73 17 be 16 c3 d1 bd 1f 44 a9 3c
       0.8857808 -0.14790289 -0.10242288 0.020662365
000130 32 f1 91 3f 5b 60 38 3d 21 8d 13 3f 27 87 84 3f
       1.1401732 0.045013767 0.5763722 1.0353745
000140 4b 29 24 bf 4c e7 55 3f fd b4 b8 be ee a6 8c 3f
       -0.6412551 0.83556056 -0.36075583 1.0988443
000150 65 d9 b5 bd c1 31 bd bf aa bc 07 3f 15 60 70 3f
       -0.08879355 -1.4780809 0.53022254 0.9389661
000160 aa 9e 7e bf 8a d4 72 be 7a fc c7 bd 2f 5c 1d 3d
       -0.9946085 -0.2371389 -0.09764953 0.03841799
000170 13 1a 0c 3f 2f c9 53 be e7 1c ec 3d aa dc 87 3e
       0.54727286 -0.20682214 0.1152895 0.2653554
000180 8c a1 6c 3f 81 8a e8 be ca 1f d0 3e 72 1a 81 be
       0.92434 -0.4541817 0.40649253 -0.2521549
000190 e8 18 65 c0 20 9a 5f 3f 69 62 07 be 48 7d f4 be
       -3.5796452 0.8734455 -0.13221134 -0.47751832
0001a0 22 37 da 3f 24 d3 10 bf 42 62 5a bf b4 85 67 3f
       1.7048075 -0.56572175 -0.8530618 0.9043839
0001b0 85 e2 34 bf 73 fa 50 3e 5d 54 04 be 79 8e 75 3e
       -0.7065814 0.20408039 -0.12922807 0.2398013
0001c0 82 e6 4e 3e 11 2f 09 3d 4b 1f a2 3f 81 20 56 be
       0.20205119 0.03349215 1.26658 -0.20910837
0001d0 f2 f7 72 3f 28 04 0b 40 01 a8 6f 3d c8 6c 52 bf
       0.94909585 2.1721287 0.05850983 -0.82197237
0001e0 9d 68 16 3f 9a 99 b5 be 01 8a 8a 3d e9 4c 05 3f
       0.5875338 -0.3546875 0.067646034 0.5207048
0001f0 d9 ce 8a be 62 06 66 bf 7f ea 80 3f d7 45 f2 bf
       -0.27110937 -0.8985349 1.0071563 -1.8927563
000200 a2 6c 9c 3e 96 b3 01 40 8a 6b 25 bf a8 6c 5a bf
       0.3055163 2.026586 -0.64617217 -0.85322046
000210 2d 65 e0 bf cd 76 99 3e aa a3 8d bf c9 6d 10 bf
       -1.7530876 0.2997345 -1.1065571 -0.5641752
000220 ec 0f 93 3f a5 66 97 3f ed f6 2c be 05 30 4d be
       1.1489234 1.18282 -0.1689107 -0.20037849
000230 47 8e 1c 3f 75 98 fc be 67 3a 4c bf 23 c2 1e 40
       0.611546 -0.49335065 -0.79776615 2.4805992
000240 52 83 8b bf 4e ac ae bc b6 7e 0c 3f 1d d9 84 bf
       -1.0899451 -0.021322396 0.54880846 -1.0378758
000250 48 5c 86 bf 4d d4 31 40 f9 46 02 be f1 7b 02 3f
       -1.0496912 2.7785828 -0.12722386 0.5097037
000260 56 44 85 3f 47 c5 b5 3f 3d 6f ac be 56 81 b9 bd
       1.041148 1.4200829 -0.33678618 -0.09057872
000270 1e b5 fa 3e aa fa a2 bd be 8a 7e bd 50 78 0f be
       0.48966306 -0.079579666 -0.062144034 -0.1401074
000280 08 eb c2 3f 52 5d c5 bf 19 39 92 bd d0 5b 31 3e
       1.5227976 -1.5419104 -0.07139797 0.1732018
000290 2e 34 87 bf c1 af 01 bf 85 75 71 3f 5e 6e 36 bf
       -1.0562799 -0.50658804 0.94319946 -0.71262157
0002a0 8e ce 8a 3e 4b 03 dd be e9 33 7d bf f4 bd a2 be
       0.27110714 -0.43166575 -0.98907334 -0.31785548
0002b0 cb 79 a7 be 17 8f bd 3f 3d 32 9d bd 6d d6 84 3f
       -0.32710108 1.4809293 -0.07675598 1.0377938
0002c0 f6 bb 38 3e d4 2f 71 3f 6f 35 90 3f a6 31 5f bf
       0.18040451 0.94213605 1.1266307 -0.8718513
0002d0 66 41 46 bf f2 95 d4 3f 80 ee 93 bf c5 22 a4 3f
       -0.7744354 1.660826 -1.155716 1.2823111
0002e0 7a fc 87 bf e4 05 61 3e 96 6a 5f 3e d4 63 8f 3f
       -1.0623925 0.21974903 0.21818003 1.120234
0002f0 48 fc 0b 3f 01 83 a3 bf d4 3a a9 3f 36 ee d2 3e
       0.54681826 -1.2774354 1.3221078 0.41197366
000300 ac 1a 72 bd 51 ab 74 3e af fc 78 be 11 73 6d 3f
       -0.059107468 0.23893477 -0.24315141 0.927537
000310 49 e2 96 bf e9 e4 07 3f ac 81 37 be ca 4f dd be
       -1.1787807 0.53083664 -0.1792056 -0.43224937
000320 c9 20 18 3f b5 2e e1 3d 5f 7a 38 3e aa 9e e5 bf
       0.59425026 0.10995237 0.18015431 -1.7939045
000330 92 37 f5 3c 52 78 37 bf 0e b3 02 40 e0 5c b5 3d
       0.029933725 -0.7166797 2.0421786 0.08855605
000340 91 c6 65 be 28 f2 1b 3e 0b 55 d9 bf b9 f6 78 3f
       -0.22439028 0.15229094 -1.6979078 0.9725147
000350 3a d6 13 bf c2 a8 29 bf ec d1 96 3e 4c ea 81 3f
       -0.5774876 -0.6627313 0.29457033 1.0149627
000360 dc 92 03 3f 9d 44 36 3e 5e e9 eb 3e d3 c7 6e 3f
       0.51395965 0.17799611 0.46076483 0.9327366
000370 99 8c 1c 3d 13 80 00 be 80 d1 7a bf bc 8e 66 3f
       0.038220022 -0.12548856 -0.9797592 0.90061545
000380 f2 5d 40 3f eb a6 dd 3f 84 cf 76 be b0 7d 8a bf
       0.7514335 1.7316564 -0.24102598 -1.0819607
000390 a7 fa 2c bf f9 1d 17 bf 3f 0e f0 be b2 9d 49 3f
       -0.67569965 -0.5903011 -0.4688587 0.7875625
0003a0 fc 50 51 3f d3 b2 75 bf b9 e5 b1 bf e0 3f 83 3e
       0.817642 -0.9597599 -1.3898231 0.2563467
0003b0 75 40 87 3e af f5 db 3e cd 53 07 3f 86 c3 b4 be
       0.26416364 0.4296088 0.52862245 -0.35305423
0003c0 1c fd ea be 7c a7 2c 3f be 46 8d bf 31 1d c3 bf
       -0.45896232 0.6744306 -1.1037214 -1.5243284
0003d0 6a fa f0 be 7c 64 a4 3f 49 84 52 3e 8f f3 d0 3f
       -0.4706605 1.2843165 0.20558275 1.6324328
0003e0 47 fb 4c be 5e 24 2e bf 8b e4 99 3f a2 6d 1e bf
       -0.2001773 -0.6802424 1.2022871 -0.61886036
0003f0 d4 2f 56 3e 95 eb 72 be 23 5e 50 3f 72 83 53 3d
       0.20916682 -0.2372268 0.8139364 0.051639028

lstm.bias_ih_l1 f4 [128]
000000 d9 4f b3 bf 06 4c 76 bf 59 21 b6 bf 78 f2 83 bf
       -1.4008743 -0.9620975 -1.4228927 -1.030837
000010 c0 29 38 bf c5 5d 76 bf 7f 9b 79 bf 91 94 93 bf
       -0.71938705 -0.9623683 -0.97502893 -1.1529714
000020 bd 1e 8d bf 27 65 66 bf cb 1e 69 bf 7b 92 f9 be
       -1.1025006 -0.89998096 -0.9106261 -0.48744568
000030 de 27 8d bf 01 5d b1 bf df 23 c7 bf e1 e7 a4 bf
       -1.1027792 -1.3856508 -1.5557822 -1.2883264
000040 9a dd 26 bf 4f de 77 bf 08 83 e4 be d2 53 f2 bf
       -0.6518189 -0.9682359 -0.4463122 -1.893183
000050 21 d2 dd bf 11 a7 26 c0 7b 4c 5f bf a7 f8 c8 bf
       -1.7329751 -2.603947 -0.87226075 -1.5700883
000060 c7 1c 66 bf 34 09 14 bf 8b 17 72 be f5 b2 86 bf
       -0.8988766 -0.5782654 -0.23641793 -1.0523363
000070 04 0f 85 bf f6 66 90 bf 52 d7 d6 be 65 6b bf bf
       -1.0395207 -1.1281421 -0.4196115 -1.4954649
000080 a3 5b 17 3f 0c 6a 4b 3e 80 ec 49 3f 54 39 18 3f
       0.591242 0.19864672 0.78876495 0.59462476
000090 af c2 e4 bd 23 08 c1 3c 2e 3a 17 3f 97 dc 57 3f
       -0.111699454 0.02356345 0.5907315 0.8432097
0000a0 4f 35 43 3f 8c 8b fe 3f 4a 5e 3c 3f 30 58 8b 3f
       0.7625322 1.9886336 0.73581374 1.0886288
0000b0 50 0b 3b 3e d2 0c f3 3e 95 53 24 3f 5a b0 79 3f
       0.18266034 0.4747072 0.64190036 0.97534716
0000c0 ad c6 87 3f a3 4e a0 3f a8 da 66 3e 7d 4b 91 be
       1.0607506 1.2523998 0.22544348 -0.28377905
0000d0 81 85 80 3f 22 38 73 bf 17 ea ef 3e d9 ef c2 3e
       1.0040742 -0.95007527 0.46858284 0.38073614
0000e0 00 31 41 3f 8a 92 0f 3f 12 3b 6e 3e 53 b9 86 3f
       0.75465393 0.56082976 0.23264721 1.0525306
0000f0 2c ea 6e 3f ac f7 4d 3f ec 41 42 3f 68 72 01 3f
       0.9332607 0.8045604 0.7588184 0.50565195
000100 b3 c9 3d be 9c 30 40 be 6c 7b ad 3e 6d 35 72 bd
       -0.18533973 -0.18768543 0.33883226 -0.059132982
000110 c8 ad 8f 3e df 2c a0 be 43 41 bb bc 88 17 7c 3e
       0.28062272 -0.31284234 -0.022858268 0.24618351
000120 33 50 ec bc 15 eb c9 3d 77 11 fb be 7e f5 35 3f
       -0.028846836 0.098592915 -0.49036762 0.71077716
000130 71 75 fb bd b2 ab cc 3e 91 6a 15 bf 9f 68 0a 3e
       -0.122782595 0.39974743 -0.5836573 0.13516472
000140 e0 93 48 3e 3f 17 91 bf 81 af 00 3e 2f 1a 9d be
       0.1958766 -1.1335219 0.1256695 -0.3068404
000150 06 1e 50 3e 65 52 d4 be 5c eb d8 3d f3 42 60 be
       0.20323953 -0.41469112 0.10591766 -0.21900539
000160 3a ae 54 bd f7 f2 7c bd 03 22 5c be 2e f0 f6 be
       -0.051923968 -0.061755147 -0.2149735 -0.48230118
000170 9e f2 b3 be 7d df 81 3e 5d ab 11 bf 24 33 fe bd
       -0.3514604 0.2536582 -0.56902105 -0.12412098
000180 1e 51 e6 be 9e fe c2 be 8d a3 06 bd bd 25 05 bf
       -0.44983763 -0.38084882 -0.032870818 -0.5201071
000190 43 06 1c bf 00 c5 c6 be 4f 25 e6 be a8 76 03 be
       -0.60947055 -0.38822174 -0.4495034 -0.12838233
0001a0 75 c3 d0 3c 63 b8 9c 3d 2c 28 55 be 31 b4 11 bd
       0.025483826 0.076523565 -0.20816106 -0.035572235
0001b0 4d cc d7 be fa 6d dc bd 15 8b 9f 3c ae 47 2e 3e
       -0.42148057 -0.10763164 0.0194755 0.17019531
0001c0 ec 99 56 bf c2 f4 58 3e 1b a5 85 bd d3 1f a8 bf
       -0.83828616 0.21187118 -0.06525632 -1.3134712
0001d0 37 e9 6c 3d 8c 71 d1 bf a1 4f 0b 3d 4b 48 c8 be
       0.0578396 -1.6362777 0.034011487 -0.39117655
0001e0 7a 69 c3 be 6b 37 4b bf d1 a1 86 be 29 e9 15 be
       -0.3816641 -0.79381436 -0.2629533 -0.14639725
0001f0 17 30 ff bd 85 60 cf bd 9e f2 a5 3e ed a3 50 be
       -0.12460344 -0.101258315 0.32411665 -0.20375033

lstm.bias_hh_l1 f4 [128]
000000 82 dc a9 bf d0 34 67 bf b1 31 bc bf d1 34 81 bf
       -1.3270419 -0.9031496 -1.4702665 -1.0094243
000010 57 25 24 bf d7 73 7b bf 57 c2 58 bf 38 2c 9e bf
       -0.64119476 -0.9822363 -0.8467154 -1.2357244
000020 18 d2 94 bf bd b9 73 bf 60 a1 35 bf a1 c6 06 bf
       -1.1626616 -0.9520529 -0.70949364 -0.52646834
000030 8c 0a 83 bf 2f 8d aa bf 06 c4 c8 bf a1 e7 91 bf
       -1.0237594 -1.3324336 -1.5684822 -1.1398813
000040 db 8c 2b bf 24 4a 7d bf 8a 60 98 be 82 3a 0c c0
       -0.67011803 -0.98941255 -0.29761153 -2.191071
000050 19 3e d4 bf 10 f2 22 c0 be 41 83 bf a2 0b cb bf
       -1.6581451 -2.5460243 -1.0254438 -1.5862925
000060 db a5 86 bf a1 13 cb be 7b 79 ff be 90 e2 95 bf
       -1.0519365 -0.39663413 -0.4989737 -1.1709766
000070 5f 1a 90 bf 61 27 94 bf 14 86 f9 be 11 c0 ce bf
       -1.1258048 -1.1574517 -0.48735106 -1.6152364
000080 5c e0 a4 3e 09 e8 51 3e 10 3f 69 3f 5a 4d 3d 3f
       0.32202423 0.2049867 0.9111185 0.73946154
000090 93 47 04 be 50 ec 89 3e b2 9b d2 3e 43 1a 3e 3f
       -0.12917928 0.26938105 0.4113441 0.7425882
0000a0 14 61 3c 3f 6c 32 00 40 0c fb d5 3e 9d 2f 63 3f
       0.7358563 2.0030775 0.41793096 0.8874453
0000b0 4a 9c 90 3e 09 f6 bd 3e 45 3c 1d 3f 58 02 79 3f
       0.2824424 0.37101772 0.6142009 0.972692
0000c0 f4 ad 5a 3f 50 c3 af 3f 68 46 df 3e 0c 34 00 bf
       0.8542168 1.373148 0.43608403 -0.5007942
0000d0 a2 0c 81 3f 96 5d 3b bf e3 5d 01 3f bb 59 8f 3e
       1.008198 -0.73189676 0.50533885 0.27998146
0000e0 8f fa 4c 3f 28 c5 49 3f 43 cc bd 3e 15 16 82 3f
       0.8006982 0.7881646 0.37069902 1.0162989
0000f0 6c e7 43 3f de f2 84 3f 8a 08 67 3f 94 d6 85 3e
       0.76524997 1.0386617 0.90247405 0.26140273
000100 27 8e f5 bd bf d5 9c be 7f 38 fb 3e 9f d5 aa bd
       -0.11990004 -0.30631825 0.4906654 -0.08341526
000110 64 53 05 3e b9 3c 8f be d0 fe 78 bd 59 9e af bd
       0.13020092 -0.27976015 -0.060789883 -0.08575124
000120 a4 92 a4 3d 2b d0 8e 3e d1 94 d3 be 36 45 39 3f
       0.08035782 0.27893195 -0.41324475 0.7237123
000130 d6 0e 6e be 70 fa fb 3d 94 28 c8 be ca d2 d2 bd
       -0.23247847 0.123036265 -0.3909346 -0.10294111
000140 bd fb d6 3e 80 03 9d bf 43 6f 32 3c 77 28 a3 be
       0.41988936 -1.2266693 0.010890785 -0.3186681
000150 37 41 a0 3e a5 0b b5 be 5f ab c2 3d 02 25 45 be
       0.31299755 -0.35360447 0.09505343 -0.19252399
000160 a5 0e 70 3e 2d 24 81 be 30 3f d9 be c4 d5 17 bf
       0.23443086 -0.25222912 -0.4243102 -0.59310555
000170 cd 9b e6 be b1 68 51 3e 35 99 b1 be 87 3a b0 be
       -0.45040742 0.20450093 -0.346872 -0.34419653
000180 bf 8a 6d be 4d 0a ff be aa 45 f6 bd 7f 4d b7 be
       -0.23197459 -0.49812546 -0.12025006 -0.35801312
000190 55 7f 21 bf b0 f3 08 bf e5 d7 6b be 6f ef 8c be
       -0.6308492 -0.5349684 -0.23031576 -0.27526423
0001a0 46 bb 37 3d e6 83 a2 3e 60 f3 9b be 92 2f b8 3d
       0.044856332 0.31741256 -0.30459118 0.08993448
0001b0 52 d1 bb be 99 d8 b4 bd e8 80 b5 3d 0d b7 83 3e
       -0.36683136 -0.08830375 0.088624775 0.25725594
0001c0 6f 19 42 bf 20 16 f5 3e c9 f1 4f 3b 3d 3a 9a bf
       -0.7582006 0.47868443 0.0031729809 -1.2049023
0001d0 7b 91 4a 3d ff 28 c4 bf fc 13 c8 3d aa fa 1b bf
       0.049455147 -1.5325011 0.09769437 -0.6092936
0001e0 77 ec 23 be 6a 94 2a bf a2 d8 7a be c9 d1 c8 be
       -0.16008173 -0.6663271 -0.24496701 -0.39222553
0001f0 25 f4 f7 bd 65 e7 f9 bc 73 66 f5 3e 9d 46 ed 3c
       -0.12107114 -0.030505845 0.47929725 0.028964335

fc.weight f4 [2, 32]
000000 d8 62 7a 3d ee 96 35 bc 17 63 ec bf d0 d4 ee bd
       0.06112942 -0.011083348 -1.846774 -0.116616845
000010 58 ef f7 3d f2 22 79 3c 0a e5 03 3d ee ab 74 be
       0.12106198 0.0152060855 0.03220085 -0.23893711
000020 bc 49 ea 3d da e3 f6 bd cf a7 74 bd f0 4f 8c 3d
       0.11439845 -0.12055178 -0.059730347 0.06851184
000030 d5 40 82 3a 27 76 37 3c a2 b4 5e 3f 10 8a 39 3e
       0.0009937534 0.011197603 0.86994374 0.18119073
000040 55 ad 27 bd 32 4c a5 bd 67 02 07 be a1 d7 9d bf
       -0.040936787 -0.08071174 -0.1318451 -1.233143
000050 07 27 b7 3f 1a 4b 36 c0 be 1e aa 3c d7 95 f5 be
       1.4308785 -2.8483338 0.020766612 -0.4796588
000060 45 4f b5 bc cd b2 4e 3d bb d6 fc 3c de 67 04 3e
       -0.022132525 0.050463486 0.03086411 0.12930247
000070 16 0f f8 bc d4 c0 93 bd 2c 5b a7 bd a4 b9 96 3f
       -0.030280631 -0.072145134 -0.081716865 1.1775403
000080 d2 d2 cb 3c 2a 4e ab bd 27 e8 d0 3f 9b ea b4 bc
       0.0248808 -0.08364518 1.6320847 -0.022084525
000090 8c e4 18 be 1d 5d f2 bd 6c 7e 29 3d 21 6a b3 3d
       -0.14930934 -0.11834166 0.04138033 0.08760477
0000a0 3d d7 d3 3d a9 98 c9 bd 72 4b 9b 3d 6d 16 d7 3c
       0.10343788 -0.09843571 0.075827494 0.02625581
0000b0 99 2d 1b bc 89 8d ab bd ad b8 7c bf 02 7b da bd
       -0.009471321 -0.08376605 -0.9871929 -0.10667993
0000c0 80 2c 52 3c b6 6c 4c 3e 2f c4 82 bd ce 5a a2 3f
       0.012827992 0.19963345 -0.06385075 1.2683961
0000d0 95 01 cb bf 4a 41 34 40 dd 6f 23 be 48 e5 ed 3e
       -1.5859858 2.816485 -0.15960641 0.4646399
0000e0 70 34 15 bd 84 b8 f9 3d f4 08 9e 3c b3 cb c4 3c
       -0.03642696 0.12193397 0.019291379 0.024022913
0000f0 49 6e 5e bd a1 e1 87 3d 7e af 26 3d cf f0 98 bf
       -0.054304395 0.06634832 0.040694706 -1.1948489

fc.bias f4 [2]
000000 50 69 02 3c 9f bf c6 bd
       0.007959679 -0.097045176
